…
::: ##:::: ##:::: ##: ##::. ##: ########:: ########: ##:::: ##:
:::..:::::..:::::..::..::::..::........:::........::..:::::..::

2023-04-29 00:17:30.348 | INFO     | models.temporal_integrators:summarize:571 - [34mofficial PyTorch implementation.[0m
2023-04-29 00:17:30.406 | INFO     | models.temporal_integrators:summarize:593 - Network summary:
==========================================================================================
Layer (type:depth-idx)                   Output Shape              Param #
==========================================================================================
B2BsqrtTANDEM                            [150, 50, 3, 3]           771
├─LSTM: 1-1                              [6750, 6, 26]             16,120
│    └─Tanh: 2-1                         [6750, 26]                --
│    └─Tanh: 2-2                         [6750, 26]                --
│    └─Tanh: 2-3                         [6750, 26]                --
│    └─Tanh: 2-4                         [6750, 26]                --
│    └─Tanh: 2-5                         [6750, 26]                --
│    └─Tanh: 2-6                         [6750, 26]                --
│    └─Tanh: 2-7                         [6750, 26]                --
│    └─Tanh: 2-8                         [6750, 26]                --
│    └─Tanh: 2-9                         [6750, 26]                --
│    └─Tanh: 2-10                        [6750, 26]                --
│    └─Tanh: 2-11                        [6750, 26]                --
│    └─Tanh: 2-12                        [6750, 26]                --
│    └─Tanh: 2-13                        [6750, 26]                --
│    └─Tanh: 2-14                        [6750, 26]                --
│    └─Tanh: 2-15                        [6750, 26]                --
│    └─Tanh: 2-16                        [6750, 26]                --
│    └─Tanh: 2-17                        [6750, 26]                --
│    └─Tanh: 2-18                        [6750, 26]                --
├─GELU: 1-2                              [6750, 26]                --
├─Linear: 1-3                            [6750, 3]                 81
├─GELU: 1-4                              [6750, 26]                --
├─Linear: 1-5                            [6750, 3]                 (recursive)
├─GELU: 1-6                              [6750, 26]                --
├─Linear: 1-7                            [6750, 3]                 (recursive)
├─GELU: 1-8                              [6750, 26]                --
├─Linear: 1-9                            [6750, 3]                 (recursive)
├─GELU: 1-10                             [6750, 26]                --
├─Linear: 1-11                           [6750, 3]                 (recursive)
├─GELU: 1-12                             [6750, 26]                --
├─Linear: 1-13                           [6750, 3]                 (recursive)
==========================================================================================
Total params: 16,972
Trainable params: 16,972
Non-trainable params: 0
Total mult-adds (M): 3.28
==========================================================================================
Input size (MB): 3.84
Forward/backward pass size (MB): 0.97
…
