…
::: ##:::: ##:::: ##: ##::. ##: ########:: ########: ##:::: ##:
:::..:::::..:::::..::..::::..::........:::........::..:::::..::

2023-04-29 14:18:06.329 | INFO     | models.temporal_integrators:summarize:571 - [34mofficial PyTorch implementation.[0m
2023-04-29 14:18:06.586 | INFO     | models.temporal_integrators:summarize:593 - Network summary:
==========================================================================================
Layer (type:depth-idx)                   Output Shape              Param #
==========================================================================================
B2BsqrtTANDEM                            [150, 50, 3, 3]           259
├─LSTM: 1-1                              [7350, 2, 69]             54,648
│    └─Sigmoid: 2-1                      [7350, 69]                --
│    └─Sigmoid: 2-2                      [7350, 69]                --
│    └─Sigmoid: 2-3                      [7350, 69]                --
│    └─Sigmoid: 2-4                      [7350, 69]                --
│    └─Sigmoid: 2-5                      [7350, 69]                --
│    └─Sigmoid: 2-6                      [7350, 69]                --
├─Tanh: 1-2                              [7350, 69]                --
├─Linear: 1-3                            [7350, 3]                 210
├─Tanh: 1-4                              [7350, 69]                --
├─Linear: 1-5                            [7350, 3]                 (recursive)
==========================================================================================
Total params: 55,117
Trainable params: 55,117
Non-trainable params: 0
Total mult-adds (M): 3.09
==========================================================================================
Input size (MB): 3.84
Forward/backward pass size (MB): 0.35
…
