…
::: ##:::: ##:::: ##: ##::. ##: ########:: ########: ##:::: ##:
:::..:::::..:::::..::..::::..::........:::........::..:::::..::

2023-04-29 05:15:30.610 | INFO     | models.temporal_integrators:summarize:571 - [34mofficial PyTorch implementation.[0m
2023-04-29 05:15:31.116 | INFO     | models.temporal_integrators:summarize:593 - Network summary:
==========================================================================================
Layer (type:depth-idx)                   Output Shape              Param #
==========================================================================================
B2BsqrtTANDEM                            [150, 50, 3, 3]           3
├─PositionalEncoding: 1-1                [7050, 4, 128]            --
│    └─Dropout: 2-1                      [4, 7050, 128]            --
├─LSTM: 1-2                              [7050, 4, 44]             30,448
│    └─Sigmoid: 2-2                      [7050, 44]                --
│    └─Sigmoid: 2-3                      [7050, 44]                --
│    └─Sigmoid: 2-4                      [7050, 44]                --
│    └─Sigmoid: 2-5                      [7050, 44]                --
│    └─Sigmoid: 2-6                      [7050, 44]                --
│    └─Sigmoid: 2-7                      [7050, 44]                --
│    └─Sigmoid: 2-8                      [7050, 44]                --
│    └─Sigmoid: 2-9                      [7050, 44]                --
│    └─Sigmoid: 2-10                     [7050, 44]                --
│    └─Sigmoid: 2-11                     [7050, 44]                --
│    └─Sigmoid: 2-12                     [7050, 44]                --
│    └─Sigmoid: 2-13                     [7050, 44]                --
├─GELU: 1-3                              [7050, 44]                --
├─Linear: 1-4                            [7050, 3]                 135
├─GELU: 1-5                              [7050, 44]                --
├─Linear: 1-6                            [7050, 3]                 (recursive)
├─GELU: 1-7                              [7050, 44]                --
├─Linear: 1-8                            [7050, 3]                 (recursive)
├─GELU: 1-9                              [7050, 44]                --
├─Linear: 1-10                           [7050, 3]                 (recursive)
==========================================================================================
Total params: 30,586
Trainable params: 30,586
Non-trainable params: 0
Total mult-adds (M): 3.81
==========================================================================================
Input size (MB): 3.84
Forward/backward pass size (MB): 0.68
…
