…
::: ##:::: ##:::: ##: ##::. ##: ########:: ########: ##:::: ##:
:::..:::::..:::::..::..::::..::........:::........::..:::::..::

2023-04-29 02:36:01.595 | INFO     | models.temporal_integrators:summarize:571 - [34mofficial PyTorch implementation.[0m
2023-04-29 02:36:02.105 | INFO     | models.temporal_integrators:summarize:593 - Network summary:
==========================================================================================
Layer (type:depth-idx)                   Output Shape              Param #
==========================================================================================
B2BsqrtTANDEM                            [150, 50, 3, 3]           256
├─LSTM: 1-1                              [7350, 2, 42]             28,728
│    └─Tanh: 2-1                         [7350, 42]                --
│    └─Tanh: 2-2                         [7350, 42]                --
│    └─Tanh: 2-3                         [7350, 42]                --
│    └─Tanh: 2-4                         [7350, 42]                --
│    └─Tanh: 2-5                         [7350, 42]                --
│    └─Tanh: 2-6                         [7350, 42]                --
├─GELU: 1-2                              [7350, 42]                --
├─Linear: 1-3                            [7350, 3]                 129
├─GELU: 1-4                              [7350, 42]                --
├─Linear: 1-5                            [7350, 3]                 (recursive)
==========================================================================================
Total params: 29,113
Trainable params: 29,113
Non-trainable params: 0
Total mult-adds (M): 1.90
==========================================================================================
Input size (MB): 3.84
Forward/backward pass size (MB): 0.35
…
