…
::: ##:::: ##:::: ##: ##::. ##: ########:: ########: ##:::: ##:
:::..:::::..:::::..::..::::..::........:::........::..:::::..::

2023-04-28 23:53:02.397 | INFO     | models.temporal_integrators:summarize:571 - [34mofficial PyTorch implementation.[0m
2023-04-28 23:53:02.463 | INFO     | models.temporal_integrators:summarize:593 - Network summary:
==========================================================================================
Layer (type:depth-idx)                   Output Shape              Param #
==========================================================================================
B2BsqrtTANDEM                            [150, 50, 3, 3]           643
├─LSTM: 1-1                              [6900, 5, 17]             9,928
│    └─Sigmoid: 2-1                      [6900, 17]                --
│    └─Sigmoid: 2-2                      [6900, 17]                --
│    └─Sigmoid: 2-3                      [6900, 17]                --
│    └─Sigmoid: 2-4                      [6900, 17]                --
│    └─Sigmoid: 2-5                      [6900, 17]                --
│    └─Sigmoid: 2-6                      [6900, 17]                --
│    └─Sigmoid: 2-7                      [6900, 17]                --
│    └─Sigmoid: 2-8                      [6900, 17]                --
│    └─Sigmoid: 2-9                      [6900, 17]                --
│    └─Sigmoid: 2-10                     [6900, 17]                --
│    └─Sigmoid: 2-11                     [6900, 17]                --
│    └─Sigmoid: 2-12                     [6900, 17]                --
│    └─Sigmoid: 2-13                     [6900, 17]                --
│    └─Sigmoid: 2-14                     [6900, 17]                --
│    └─Sigmoid: 2-15                     [6900, 17]                --
│    └─Sigmoid: 2-16                     [6900, 17]                --
│    └─Sigmoid: 2-17                     [6900, 17]                --
│    └─Sigmoid: 2-18                     [6900, 17]                --
│    └─Sigmoid: 2-19                     [6900, 17]                --
│    └─Sigmoid: 2-20                     [6900, 17]                --
│    └─Sigmoid: 2-21                     [6900, 17]                --
│    └─Sigmoid: 2-22                     [6900, 17]                --
│    └─Sigmoid: 2-23                     [6900, 17]                --
│    └─Sigmoid: 2-24                     [6900, 17]                --
│    └─Sigmoid: 2-25                     [6900, 17]                --
├─GELU: 1-2                              [6900, 17]                --
├─Linear: 1-3                            [6900, 3]                 54
├─GELU: 1-4                              [6900, 17]                --
├─Linear: 1-5                            [6900, 3]                 (recursive)
├─GELU: 1-6                              [6900, 17]                --
├─Linear: 1-7                            [6900, 3]                 (recursive)
├─GELU: 1-8                              [6900, 17]                --
├─Linear: 1-9                            [6900, 3]                 (recursive)
├─GELU: 1-10                             [6900, 17]                --
├─Linear: 1-11                           [6900, 3]                 (recursive)
==========================================================================================
Total params: 10,625
Trainable params: 10,625
Non-trainable params: 0
Total mult-adds (M): 1.86
==========================================================================================
Input size (MB): 3.84
Forward/backward pass size (MB): 0.83
…
