…
::: ##:::: ##:::: ##: ##::. ##: ########:: ########: ##:::: ##:
:::..:::::..:::::..::..::::..::........:::........::..:::::..::

2023-04-29 16:46:21.306 | INFO     | models.temporal_integrators:summarize:571 - [34mofficial PyTorch implementation.[0m
2023-04-29 16:46:21.373 | INFO     | models.temporal_integrators:summarize:593 - Network summary:
==========================================================================================
Layer (type:depth-idx)                   Output Shape              Param #
==========================================================================================
B2BsqrtTANDEM                            [150, 50, 3, 3]           387
├─LSTM: 1-1                              [7200, 3, 28]             17,584
│    └─Tanh: 2-1                         [7200, 28]                --
│    └─Tanh: 2-2                         [7200, 28]                --
│    └─Tanh: 2-3                         [7200, 28]                --
│    └─Tanh: 2-4                         [7200, 28]                --
│    └─Tanh: 2-5                         [7200, 28]                --
│    └─Tanh: 2-6                         [7200, 28]                --
│    └─Tanh: 2-7                         [7200, 28]                --
│    └─Tanh: 2-8                         [7200, 28]                --
│    └─Tanh: 2-9                         [7200, 28]                --
│    └─Tanh: 2-10                        [7200, 28]                --
│    └─Tanh: 2-11                        [7200, 28]                --
│    └─Tanh: 2-12                        [7200, 28]                --
│    └─Tanh: 2-13                        [7200, 28]                --
│    └─Tanh: 2-14                        [7200, 28]                --
│    └─Tanh: 2-15                        [7200, 28]                --
├─Linear: 1-2                            [7200, 3]                 87
├─Linear: 1-3                            [7200, 3]                 (recursive)
├─Linear: 1-4                            [7200, 3]                 (recursive)
==========================================================================================
Total params: 18,058
Trainable params: 18,058
Non-trainable params: 0
Total mult-adds (M): 1.88
==========================================================================================
…
