…
::: ##:::: ##:::: ##: ##::. ##: ########:: ########: ##:::: ##:
:::..:::::..:::::..::..::::..::........:::........::..:::::..::

2023-04-29 01:38:52.189 | INFO     | models.temporal_integrators:summarize:571 - [34mofficial PyTorch implementation.[0m
2023-04-29 01:38:52.580 | INFO     | models.temporal_integrators:summarize:593 - Network summary:
==========================================================================================
Layer (type:depth-idx)                   Output Shape              Param #
==========================================================================================
B2BsqrtTANDEM                            [150, 50, 3, 3]           387
├─LSTM: 1-1                              [7200, 3, 127]            130,048
│    └─Tanh: 2-1                         [7200, 127]               --
│    └─Tanh: 2-2                         [7200, 127]               --
│    └─Tanh: 2-3                         [7200, 127]               --
│    └─Tanh: 2-4                         [7200, 127]               --
│    └─Tanh: 2-5                         [7200, 127]               --
│    └─Tanh: 2-6                         [7200, 127]               --
│    └─Tanh: 2-7                         [7200, 127]               --
│    └─Tanh: 2-8                         [7200, 127]               --
│    └─Tanh: 2-9                         [7200, 127]               --
│    └─Tanh: 2-10                        [7200, 127]               --
│    └─Tanh: 2-11                        [7200, 127]               --
│    └─Tanh: 2-12                        [7200, 127]               --
│    └─Tanh: 2-13                        [7200, 127]               --
│    └─Tanh: 2-14                        [7200, 127]               --
│    └─Tanh: 2-15                        [7200, 127]               --
├─Linear: 1-2                            [7200, 3]                 384
├─Linear: 1-3                            [7200, 3]                 (recursive)
├─Linear: 1-4                            [7200, 3]                 (recursive)
==========================================================================================
Total params: 130,819
Trainable params: 130,819
Non-trainable params: 0
Total mult-adds (M): 8.29
==========================================================================================
…
