…
:::..:::::..:::::..::..::::..::........:::........::..:::::..::

2023-04-29 00:34:33.850 | INFO     | models.temporal_integrators:summarize:571 - [34mofficial PyTorch implementation.[0m
2023-04-29 00:34:34.454 | INFO     | models.temporal_integrators:summarize:593 - Network summary:
===============================================================================================
Layer (type:depth-idx)                        Output Shape              Param #
===============================================================================================
TANDEMformer                                  [150, 50, 3, 3]           --
├─PositionalEncoding: 1-1                     [7500, 1, 128]            --
│    └─Dropout: 2-1                           [1, 7500, 128]            --
├─TransformerEncoder: 1-2                     [7500, 1, 128]            --
│    └─ModuleList: 2-2                        --                        --
│    │    └─TransformerEncoderLayer: 3-1      [7500, 1, 128]            74,912
├─Linear: 1-3                                 [7500, 32]                4,128
├─Dropout: 1-4                                [7500, 32]                --
├─LayerNorm: 1-5                              [7500, 32]                64
├─Tanh: 1-6                                   [7500, 32]                --
├─Linear: 1-7                                 [7500, 3]                 99
===============================================================================================
Total params: 79,203
Trainable params: 79,203
Non-trainable params: 0
Total mult-adds (M): 98.66
===============================================================================================
Input size (MB): 3.84
Forward/backward pass size (MB): 28.98
Params size (MB): 0.05
Estimated Total Size (MB): 32.87
…
