…
:::..:::::..:::::..::..::::..::........:::........::..:::::..::

2023-04-29 06:26:17.759 | INFO     | models.temporal_integrators:summarize:571 - [34mofficial PyTorch implementation.[0m
2023-04-29 06:26:18.320 | INFO     | models.temporal_integrators:summarize:593 - Network summary:
===============================================================================================
Layer (type:depth-idx)                        Output Shape              Param #
===============================================================================================
TANDEMformer                                  [150, 50, 3, 3]           3
├─PositionalEncoding: 1-1                     [7200, 1, 128]            --
│    └─Dropout: 2-1                           [1, 7200, 128]            --
├─TransformerEncoder: 1-2                     [7200, 1, 128]            --
│    └─ModuleList: 2-6                        --                        (recursive)
│    │    └─TransformerEncoderLayer: 3-1      [7200, 1, 128]            83,136
│    │    └─TransformerEncoderLayer: 3-2      [7200, 1, 128]            83,136
├─Linear: 1-3                                 [7200, 64]                8,256
├─Dropout: 1-4                                [7200, 64]                --
├─PositionalEncoding: 1-5                     [7200, 2, 128]            --
│    └─Dropout: 2-3                           [2, 7200, 128]            --
├─TransformerEncoder: 1-6                     [7200, 2, 128]            (recursive)
│    └─ModuleList: 2-6                        --                        (recursive)
│    │    └─TransformerEncoderLayer: 3-3      [7200, 2, 128]            (recursive)
│    │    └─TransformerEncoderLayer: 3-4      [7200, 2, 128]            (recursive)
├─Linear: 1-7                                 [7200, 64]                (recursive)
├─Dropout: 1-8                                [7200, 64]                --
├─PositionalEncoding: 1-9                     [7200, 3, 128]            --
│    └─Dropout: 2-5                           [3, 7200, 128]            --
├─TransformerEncoder: 1-10                    [7200, 3, 128]            (recursive)
│    └─ModuleList: 2-6                        --                        (recursive)
│    │    └─TransformerEncoderLayer: 3-5      [7200, 3, 128]            (recursive)
│    │    └─TransformerEncoderLayer: 3-6      [7200, 3, 128]            (recursive)
├─Linear: 1-11                                [7200, 64]                (recursive)
├─Dropout: 1-12                               [7200, 64]                --
├─GELU: 1-13                                  [7200, 64]                --
├─Linear: 1-14                                [7200, 3]                 195
├─GELU: 1-15                                  [7200, 64]                --
├─Linear: 1-16                                [7200, 3]                 (recursive)
├─GELU: 1-17                                  [7200, 64]                --
├─Linear: 1-18                                [7200, 3]                 (recursive)
===============================================================================================
Total params: 174,726
Trainable params: 174,726
Non-trainable params: 0
Total mult-adds (M): 182.54
===============================================================================================
Input size (MB): 3.84
Forward/backward pass size (MB): 11.58
…
