…
:::..:::::..:::::..::..::::..::........:::........::..:::::..::

2023-04-29 00:21:51.921 | INFO     | models.temporal_integrators:summarize:571 - [34mofficial PyTorch implementation.[0m
2023-04-29 00:21:51.983 | INFO     | models.temporal_integrators:summarize:593 - Network summary:
===============================================================================================
Layer (type:depth-idx)                        Output Shape              Param #
===============================================================================================
TANDEMformer                                  [150, 50, 3, 3]           128
├─TransformerEncoder: 1-1                     [7500, 1, 128]            --
│    └─ModuleList: 2-1                        --                        --
│    │    └─TransformerEncoderLayer: 3-1      [7500, 1, 128]            74,912
├─Linear: 1-2                                 [7500, 64]                8,256
├─Dropout: 1-3                                [7500, 64]                --
├─LayerNorm: 1-4                              [7500, 64]                128
├─GELU: 1-5                                   [7500, 64]                --
├─Linear: 1-6                                 [7500, 3]                 195
===============================================================================================
Total params: 83,619
Trainable params: 83,619
Non-trainable params: 0
Total mult-adds (M): 64.34
===============================================================================================
Input size (MB): 3.84
Forward/backward pass size (MB): 7.86
Params size (MB): 0.03
Estimated Total Size (MB): 11.73
…
