…
::: ##:::: ##:::: ##: ##::. ##: ########:: ########: ##:::: ##:
:::..:::::..:::::..::..::::..::........:::........::..:::::..::

2023-04-30 06:15:40.264 | INFO     | models.temporal_integrators:summarize:571 - [34mofficial PyTorch implementation.[0m
2023-04-30 06:15:42.784 | INFO     | models.temporal_integrators:summarize:593 - Network summary:
==========================================================================================
Layer (type:depth-idx)                   Output Shape              Param #
==========================================================================================
B2BsqrtTANDEM                            [150, 50, 3, 3]           512
├─LSTM: 1-1                              [7050, 4, 99]             90,288
│    └─Tanh: 2-1                         [7050, 99]                --
│    └─Tanh: 2-2                         [7050, 99]                --
│    └─Tanh: 2-3                         [7050, 99]                --
│    └─Tanh: 2-4                         [7050, 99]                --
│    └─Tanh: 2-5                         [7050, 99]                --
│    └─Tanh: 2-6                         [7050, 99]                --
│    └─Tanh: 2-7                         [7050, 99]                --
│    └─Tanh: 2-8                         [7050, 99]                --
│    └─Tanh: 2-9                         [7050, 99]                --
│    └─Tanh: 2-10                        [7050, 99]                --
│    └─Tanh: 2-11                        [7050, 99]                --
│    └─Tanh: 2-12                        [7050, 99]                --
├─ReLU: 1-2                              [7050, 99]                --
├─Linear: 1-3                            [7050, 3]                 300
├─ReLU: 1-4                              [7050, 99]                --
├─Linear: 1-5                            [7050, 3]                 (recursive)
├─ReLU: 1-6                              [7050, 99]                --
├─Linear: 1-7                            [7050, 3]                 (recursive)
├─ReLU: 1-8                              [7050, 99]                --
├─Linear: 1-9                            [7050, 3]                 (recursive)
==========================================================================================
Total params: 91,100
Trainable params: 91,100
Non-trainable params: 0
Total mult-adds (M): 8.46
==========================================================================================
Input size (MB): 3.84
Forward/backward pass size (MB): 0.68
…
