…
::: ##:::: ##:::: ##: ##::. ##: ########:: ########: ##:::: ##:
:::..:::::..:::::..::..::::..::........:::........::..:::::..::

2023-04-27 06:53:54.592 | INFO     | models.temporal_integrators:summarize:571 - [34mofficial PyTorch implementation.[0m
2023-04-27 06:53:56.514 | INFO     | models.temporal_integrators:summarize:593 - Network summary:
==========================================================================================
Layer (type:depth-idx)                   Output Shape              Param #
==========================================================================================
B2BsqrtTANDEM                            [150, 50, 3, 3]           256
├─LSTM: 1-1                              [7350, 2, 64]             49,408
│    └─Sigmoid: 2-1                      [7350, 64]                --
│    └─Sigmoid: 2-2                      [7350, 64]                --
│    └─Sigmoid: 2-3                      [7350, 64]                --
│    └─Sigmoid: 2-4                      [7350, 64]                --
│    └─Sigmoid: 2-5                      [7350, 64]                --
│    └─Sigmoid: 2-6                      [7350, 64]                --
├─ReLU: 1-2                              [7350, 64]                --
├─Linear: 1-3                            [7350, 3]                 195
├─ReLU: 1-4                              [7350, 64]                --
├─Linear: 1-5                            [7350, 3]                 (recursive)
==========================================================================================
Total params: 49,859
Trainable params: 49,859
Non-trainable params: 0
Total mult-adds (M): 2.87
==========================================================================================
Input size (MB): 3.84
Forward/backward pass size (MB): 0.35
…
