…
::: ##:::: ##:::: ##: ##::. ##: ########:: ########: ##:::: ##:
:::..:::::..:::::..::..::::..::........:::........::..:::::..::

2023-04-28 14:08:46.460 | INFO     | models.temporal_integrators:summarize:571 - [34mofficial PyTorch implementation.[0m
2023-04-28 14:08:46.969 | INFO     | models.temporal_integrators:summarize:593 - Network summary:
==========================================================================================
Layer (type:depth-idx)                   Output Shape              Param #
==========================================================================================
B2BsqrtTANDEM                            [150, 50, 3, 3]           3
├─PositionalEncoding: 1-1                [7500, 1, 128]            --
│    └─Dropout: 2-1                      [1, 7500, 128]            --
├─LSTM: 1-2                              [7500, 1, 17]             9,928
│    └─Tanh: 2-2                         [7500, 17]                --
│    └─Tanh: 2-3                         [7500, 17]                --
│    └─Tanh: 2-4                         [7500, 17]                --
├─LayerNorm: 1-3                         [7500, 17]                34
├─ReLU: 1-4                              [7500, 17]                --
├─Linear: 1-5                            [7500, 3]                 54
==========================================================================================
Total params: 10,019
Trainable params: 10,019
Non-trainable params: 0
Total mult-adds (M): 0.66
==========================================================================================
Input size (MB): 3.84
Forward/backward pass size (MB): 1.20
Params size (MB): 0.00
Estimated Total Size (MB): 5.04
==========================================================================================
…
