…
::: ##:::: ##:::: ##: ##::. ##: ########:: ########: ##:::: ##:
:::..:::::..:::::..::..::::..::........:::........::..:::::..::

2023-04-28 05:14:15.428 | INFO     | models.temporal_integrators:summarize:571 - [34mofficial PyTorch implementation.[0m
2023-04-28 05:14:15.752 | INFO     | models.temporal_integrators:summarize:593 - Network summary:
==========================================================================================
Layer (type:depth-idx)                   Output Shape              Param #
==========================================================================================
B2BsqrtTANDEM                            [150, 50, 3, 3]           3
├─PositionalEncoding: 1-1                [7200, 3, 128]            --
│    └─Dropout: 2-1                      [3, 7200, 128]            --
├─LSTM: 1-2                              [7200, 3, 24]             14,688
│    └─Sigmoid: 2-2                      [7200, 24]                --
│    └─Sigmoid: 2-3                      [7200, 24]                --
│    └─Sigmoid: 2-4                      [7200, 24]                --
│    └─Tanh: 2-5                         [7200, 24]                --
│    └─Tanh: 2-6                         [7200, 24]                --
│    └─Sigmoid: 2-7                      [7200, 24]                --
│    └─Sigmoid: 2-8                      [7200, 24]                --
│    └─Sigmoid: 2-9                      [7200, 24]                --
│    └─Tanh: 2-10                        [7200, 24]                --
│    └─Tanh: 2-11                        [7200, 24]                --
│    └─Sigmoid: 2-12                     [7200, 24]                --
│    └─Sigmoid: 2-13                     [7200, 24]                --
│    └─Sigmoid: 2-14                     [7200, 24]                --
│    └─Tanh: 2-15                        [7200, 24]                --
│    └─Tanh: 2-16                        [7200, 24]                --
├─Linear: 1-3                            [7200, 3]                 75
├─Linear: 1-4                            [7200, 3]                 (recursive)
├─Linear: 1-5                            [7200, 3]                 (recursive)
==========================================================================================
Total params: 14,766
Trainable params: 14,766
Non-trainable params: 0
Total mult-adds (M): 1.62
==========================================================================================
…
