…
::: ##:::: ##:::: ##: ##::. ##: ########:: ########: ##:::: ##:
:::..:::::..:::::..::..::::..::........:::........::..:::::..::

2023-04-28 01:53:22.097 | INFO     | models.temporal_integrators:summarize:571 - [34mofficial PyTorch implementation.[0m
2023-04-28 01:53:22.705 | INFO     | models.temporal_integrators:summarize:593 - Network summary:
==========================================================================================
Layer (type:depth-idx)                   Output Shape              Param #
==========================================================================================
B2BsqrtTANDEM                            [150, 50, 3, 3]           128
├─LSTM: 1-1                              [7500, 1, 116]            113,680
│    └─Tanh: 2-1                         [7500, 116]               --
│    └─Tanh: 2-2                         [7500, 116]               --
│    └─Tanh: 2-3                         [7500, 116]               --
├─LayerNorm: 1-2                         [7500, 116]               232
├─Linear: 1-3                            [7500, 3]                 351
==========================================================================================
Total params: 114,391
Trainable params: 114,391
Non-trainable params: 0
Total mult-adds (M): 4.37
==========================================================================================
Input size (MB): 3.84
Forward/backward pass size (MB): 7.14
Params size (MB): 0.00
Estimated Total Size (MB): 10.98
==========================================================================================
…
