…
::: ##:::: ##:::: ##: ##::. ##: ########:: ########: ##:::: ##:
:::..:::::..:::::..::..::::..::........:::........::..:::::..::

2023-04-28 14:48:28.470 | INFO     | models.temporal_integrators:summarize:571 - [34mofficial PyTorch implementation.[0m
2023-04-28 14:48:28.800 | INFO     | models.temporal_integrators:summarize:593 - Network summary:
==========================================================================================
Layer (type:depth-idx)                   Output Shape              Param #
==========================================================================================
B2BsqrtTANDEM                            [150, 50, 3, 3]           3
├─PositionalEncoding: 1-1                [7500, 1, 128]            --
│    └─Dropout: 2-1                      [1, 7500, 128]            --
├─LSTM: 1-2                              [7500, 1, 53]             38,584
│    └─Tanh: 2-2                         [7500, 53]                --
│    └─Tanh: 2-3                         [7500, 53]                --
│    └─Tanh: 2-4                         [7500, 53]                --
│    └─Sigmoid: 2-5                      [7500, 53]                --
│    └─Sigmoid: 2-6                      [7500, 53]                --
├─LayerNorm: 1-3                         [7500, 53]                106
├─ReLU: 1-4                              [7500, 53]                --
├─Linear: 1-5                            [7500, 3]                 162
==========================================================================================
Total params: 38,855
Trainable params: 38,855
Non-trainable params: 0
Total mult-adds (M): 2.01
==========================================================================================
Input size (MB): 3.84
Forward/backward pass size (MB): 3.36
Params size (MB): 0.00
Estimated Total Size (MB): 7.20
==========================================================================================
…
