…
::: ##:::: ##:::: ##: ##::. ##: ########:: ########: ##:::: ##:
:::..:::::..:::::..::..::::..::........:::........::..:::::..::

2023-04-28 05:00:06.262 | INFO     | models.temporal_integrators:summarize:571 - [34mofficial PyTorch implementation.[0m
2023-04-28 05:00:06.389 | INFO     | models.temporal_integrators:summarize:593 - Network summary:
==========================================================================================
Layer (type:depth-idx)                   Output Shape              Param #
==========================================================================================
B2BsqrtTANDEM                            [150, 50, 3, 3]           768
├─LSTM: 1-1                              [6750, 6, 30]             19,080
│    └─Sigmoid: 2-1                      [6750, 30]                --
│    └─Sigmoid: 2-2                      [6750, 30]                --
│    └─Sigmoid: 2-3                      [6750, 30]                --
│    └─Sigmoid: 2-4                      [6750, 30]                --
│    └─Sigmoid: 2-5                      [6750, 30]                --
│    └─Sigmoid: 2-6                      [6750, 30]                --
│    └─Sigmoid: 2-7                      [6750, 30]                --
│    └─Sigmoid: 2-8                      [6750, 30]                --
│    └─Sigmoid: 2-9                      [6750, 30]                --
│    └─Sigmoid: 2-10                     [6750, 30]                --
│    └─Sigmoid: 2-11                     [6750, 30]                --
│    └─Sigmoid: 2-12                     [6750, 30]                --
│    └─Sigmoid: 2-13                     [6750, 30]                --
│    └─Sigmoid: 2-14                     [6750, 30]                --
│    └─Sigmoid: 2-15                     [6750, 30]                --
│    └─Sigmoid: 2-16                     [6750, 30]                --
│    └─Sigmoid: 2-17                     [6750, 30]                --
│    └─Sigmoid: 2-18                     [6750, 30]                --
├─LayerNorm: 1-2                         [6750, 30]                60
├─ReLU: 1-3                              [6750, 30]                --
├─Linear: 1-4                            [6750, 3]                 93
├─LayerNorm: 1-5                         [6750, 30]                (recursive)
├─ReLU: 1-6                              [6750, 30]                --
├─Linear: 1-7                            [6750, 3]                 (recursive)
├─LayerNorm: 1-8                         [6750, 30]                (recursive)
├─ReLU: 1-9                              [6750, 30]                --
├─Linear: 1-10                           [6750, 3]                 (recursive)
├─LayerNorm: 1-11                        [6750, 30]                (recursive)
├─ReLU: 1-12                             [6750, 30]                --
├─Linear: 1-13                           [6750, 3]                 (recursive)
├─LayerNorm: 1-14                        [6750, 30]                (recursive)
├─ReLU: 1-15                             [6750, 30]                --
├─Linear: 1-16                           [6750, 3]                 (recursive)
├─LayerNorm: 1-17                        [6750, 30]                (recursive)
├─ReLU: 1-18                             [6750, 30]                --
├─Linear: 1-19                           [6750, 3]                 (recursive)
==========================================================================================
Total params: 20,001
Trainable params: 20,001
Non-trainable params: 0
Total mult-adds (M): 6.20
==========================================================================================
Input size (MB): 3.84
Forward/backward pass size (MB): 10.69
…
