…
::: ##:::: ##:::: ##: ##::. ##: ########:: ########: ##:::: ##:
:::..:::::..:::::..::..::::..::........:::........::..:::::..::

2023-04-28 18:26:42.337 | INFO     | models.temporal_integrators:summarize:571 - [34mofficial PyTorch implementation.[0m
2023-04-28 18:26:42.404 | INFO     | models.temporal_integrators:summarize:593 - Network summary:
==========================================================================================
Layer (type:depth-idx)                   Output Shape              Param #
==========================================================================================
B2BsqrtTANDEM                            [150, 50, 3, 3]           259
├─LSTM: 1-1                              [7350, 2, 41]             27,880
│    └─Sigmoid: 2-1                      [7350, 41]                --
│    └─Sigmoid: 2-2                      [7350, 41]                --
│    └─Sigmoid: 2-3                      [7350, 41]                --
│    └─Sigmoid: 2-4                      [7350, 41]                --
│    └─Sigmoid: 2-5                      [7350, 41]                --
│    └─Sigmoid: 2-6                      [7350, 41]                --
│    └─Sigmoid: 2-7                      [7350, 41]                --
│    └─Sigmoid: 2-8                      [7350, 41]                --
│    └─Sigmoid: 2-9                      [7350, 41]                --
│    └─Sigmoid: 2-10                     [7350, 41]                --
├─GELU: 1-2                              [7350, 41]                --
├─Linear: 1-3                            [7350, 3]                 126
├─GELU: 1-4                              [7350, 41]                --
├─Linear: 1-5                            [7350, 3]                 (recursive)
==========================================================================================
Total params: 28,265
Trainable params: 28,265
Non-trainable params: 0
Total mult-adds (M): 1.85
==========================================================================================
Input size (MB): 3.84
Forward/backward pass size (MB): 0.35
…
