…
::: ##:::: ##:::: ##: ##::. ##: ########:: ########: ##:::: ##:
:::..:::::..:::::..::..::::..::........:::........::..:::::..::

2023-04-28 05:06:29.276 | INFO     | models.temporal_integrators:summarize:571 - [34mofficial PyTorch implementation.[0m
2023-04-28 05:06:29.367 | INFO     | models.temporal_integrators:summarize:593 - Network summary:
==========================================================================================
Layer (type:depth-idx)                   Output Shape              Param #
==========================================================================================
B2BsqrtTANDEM                            [150, 50, 3, 3]           387
├─LSTM: 1-1                              [7200, 3, 113]            109,384
│    └─Sigmoid: 2-1                      [7200, 113]               --
│    └─Sigmoid: 2-2                      [7200, 113]               --
│    └─Sigmoid: 2-3                      [7200, 113]               --
│    └─Sigmoid: 2-4                      [7200, 113]               --
│    └─Sigmoid: 2-5                      [7200, 113]               --
│    └─Sigmoid: 2-6                      [7200, 113]               --
│    └─Sigmoid: 2-7                      [7200, 113]               --
│    └─Sigmoid: 2-8                      [7200, 113]               --
│    └─Sigmoid: 2-9                      [7200, 113]               --
├─Tanh: 1-2                              [7200, 113]               --
├─Linear: 1-3                            [7200, 3]                 342
├─Tanh: 1-4                              [7200, 113]               --
├─Linear: 1-5                            [7200, 3]                 (recursive)
├─Tanh: 1-6                              [7200, 113]               --
├─Linear: 1-7                            [7200, 3]                 (recursive)
==========================================================================================
Total params: 110,113
Trainable params: 110,113
Non-trainable params: 0
Total mult-adds (M): 7.39
==========================================================================================
Input size (MB): 3.84
Forward/backward pass size (MB): 0.52
…
