…
::: ##:::: ##:::: ##: ##::. ##: ########:: ########: ##:::: ##:
:::..:::::..:::::..::..::::..::........:::........::..:::::..::

2023-04-28 04:10:31.428 | INFO     | models.temporal_integrators:summarize:571 - [34mofficial PyTorch implementation.[0m
2023-04-28 04:10:31.475 | INFO     | models.temporal_integrators:summarize:593 - Network summary:
==========================================================================================
Layer (type:depth-idx)                   Output Shape              Param #
==========================================================================================
B2BsqrtTANDEM                            [150, 50, 3, 3]           259
├─LSTM: 1-1                              [7350, 2, 23]             13,984
│    └─Sigmoid: 2-1                      [7350, 23]                --
│    └─Sigmoid: 2-2                      [7350, 23]                --
│    └─Sigmoid: 2-3                      [7350, 23]                --
│    └─Sigmoid: 2-4                      [7350, 23]                --
│    └─Sigmoid: 2-5                      [7350, 23]                --
│    └─Sigmoid: 2-6                      [7350, 23]                --
├─GELU: 1-2                              [7350, 23]                --
├─Linear: 1-3                            [7350, 3]                 72
├─GELU: 1-4                              [7350, 23]                --
├─Linear: 1-5                            [7350, 3]                 (recursive)
==========================================================================================
Total params: 14,315
Trainable params: 14,315
Non-trainable params: 0
Total mult-adds (M): 1.06
==========================================================================================
Input size (MB): 3.84
Forward/backward pass size (MB): 0.35
…
