…
::: ##:::: ##:::: ##: ##::. ##: ########:: ########: ##:::: ##:
:::..:::::..:::::..::..::::..::........:::........::..:::::..::

2023-04-27 06:55:15.817 | INFO     | models.temporal_integrators:summarize:571 - [34mofficial PyTorch implementation.[0m
2023-04-27 06:55:17.227 | INFO     | models.temporal_integrators:summarize:593 - Network summary:
==========================================================================================
Layer (type:depth-idx)                   Output Shape              Param #
==========================================================================================
B2BsqrtTANDEM                            [150, 50, 3, 3]           259
├─LSTM: 1-1                              [7350, 2, 99]             90,288
│    └─Sigmoid: 2-1                      [7350, 99]                --
│    └─Sigmoid: 2-2                      [7350, 99]                --
│    └─Sigmoid: 2-3                      [7350, 99]                --
│    └─Sigmoid: 2-4                      [7350, 99]                --
│    └─Sigmoid: 2-5                      [7350, 99]                --
│    └─Sigmoid: 2-6                      [7350, 99]                --
│    └─Sigmoid: 2-7                      [7350, 99]                --
│    └─Sigmoid: 2-8                      [7350, 99]                --
│    └─Sigmoid: 2-9                      [7350, 99]                --
│    └─Sigmoid: 2-10                     [7350, 99]                --
├─LayerNorm: 1-2                         [7350, 99]                198
├─Linear: 1-3                            [7350, 3]                 300
├─LayerNorm: 1-4                         [7350, 99]                (recursive)
├─Linear: 1-5                            [7350, 3]                 (recursive)
==========================================================================================
Total params: 91,045
Trainable params: 91,045
Non-trainable params: 0
Total mult-adds (M): 7.32
==========================================================================================
…
