…
::: ##:::: ##:::: ##: ##::. ##: ########:: ########: ##:::: ##:
:::..:::::..:::::..::..::::..::........:::........::..:::::..::

2023-04-28 04:14:45.151 | INFO     | models.temporal_integrators:summarize:571 - [34mofficial PyTorch implementation.[0m
2023-04-28 04:14:45.196 | INFO     | models.temporal_integrators:summarize:593 - Network summary:
==========================================================================================
Layer (type:depth-idx)                   Output Shape              Param #
==========================================================================================
B2BsqrtTANDEM                            [150, 50, 3, 3]           384
├─LSTM: 1-1                              [7200, 3, 39]             26,208
│    └─Tanh: 2-1                         [7200, 39]                --
│    └─Tanh: 2-2                         [7200, 39]                --
│    └─Tanh: 2-3                         [7200, 39]                --
│    └─Tanh: 2-4                         [7200, 39]                --
│    └─Tanh: 2-5                         [7200, 39]                --
│    └─Tanh: 2-6                         [7200, 39]                --
│    └─Tanh: 2-7                         [7200, 39]                --
│    └─Tanh: 2-8                         [7200, 39]                --
│    └─Tanh: 2-9                         [7200, 39]                --
│    └─Tanh: 2-10                        [7200, 39]                --
│    └─Tanh: 2-11                        [7200, 39]                --
│    └─Tanh: 2-12                        [7200, 39]                --
│    └─Tanh: 2-13                        [7200, 39]                --
│    └─Tanh: 2-14                        [7200, 39]                --
│    └─Tanh: 2-15                        [7200, 39]                --
├─LayerNorm: 1-2                         [7200, 39]                78
├─GELU: 1-3                              [7200, 39]                --
├─Linear: 1-4                            [7200, 3]                 120
├─LayerNorm: 1-5                         [7200, 39]                (recursive)
├─GELU: 1-6                              [7200, 39]                --
├─Linear: 1-7                            [7200, 3]                 (recursive)
├─LayerNorm: 1-8                         [7200, 39]                (recursive)
├─GELU: 1-9                              [7200, 39]                --
├─Linear: 1-10                           [7200, 3]                 (recursive)
==========================================================================================
Total params: 26,790
Trainable params: 26,790
Non-trainable params: 0
Total mult-adds (M): 4.28
==========================================================================================
Input size (MB): 3.84
Forward/backward pass size (MB): 7.26
…
