…
::: ##:::: ##:::: ##: ##::. ##: ########:: ########: ##:::: ##:
:::..:::::..:::::..::..::::..::........:::........::..:::::..::

2023-04-28 01:28:29.358 | INFO     | models.temporal_integrators:summarize:571 - [34mofficial PyTorch implementation.[0m
2023-04-28 01:28:29.412 | INFO     | models.temporal_integrators:summarize:593 - Network summary:
==========================================================================================
Layer (type:depth-idx)                   Output Shape              Param #
==========================================================================================
B2BsqrtTANDEM                            [150, 50, 3, 3]           515
├─LSTM: 1-1                              [7050, 4, 24]             14,688
│    └─Sigmoid: 2-1                      [7050, 24]                --
│    └─Sigmoid: 2-2                      [7050, 24]                --
│    └─Sigmoid: 2-3                      [7050, 24]                --
│    └─Tanh: 2-4                         [7050, 24]                --
│    └─Tanh: 2-5                         [7050, 24]                --
│    └─Sigmoid: 2-6                      [7050, 24]                --
│    └─Sigmoid: 2-7                      [7050, 24]                --
│    └─Sigmoid: 2-8                      [7050, 24]                --
│    └─Tanh: 2-9                         [7050, 24]                --
│    └─Tanh: 2-10                        [7050, 24]                --
│    └─Sigmoid: 2-11                     [7050, 24]                --
│    └─Sigmoid: 2-12                     [7050, 24]                --
│    └─Sigmoid: 2-13                     [7050, 24]                --
│    └─Tanh: 2-14                        [7050, 24]                --
│    └─Tanh: 2-15                        [7050, 24]                --
│    └─Sigmoid: 2-16                     [7050, 24]                --
│    └─Sigmoid: 2-17                     [7050, 24]                --
│    └─Sigmoid: 2-18                     [7050, 24]                --
│    └─Tanh: 2-19                        [7050, 24]                --
│    └─Tanh: 2-20                        [7050, 24]                --
│    └─Tanh: 2-21                        [7050, 24]                --
├─Linear: 1-2                            [7050, 3]                 75
├─LSTM: 1-7                              --                        (recursive)
│    └─Tanh: 2-22                        [7050, 24]                --
├─Linear: 1-4                            [7050, 3]                 (recursive)
├─LSTM: 1-7                              --                        (recursive)
│    └─Tanh: 2-23                        [7050, 24]                --
├─Linear: 1-6                            [7050, 3]                 (recursive)
├─LSTM: 1-7                              --                        (recursive)
│    └─Tanh: 2-24                        [7050, 24]                --
├─Linear: 1-8                            [7050, 3]                 (recursive)
==========================================================================================
Total params: 15,278
Trainable params: 15,278
Non-trainable params: 0
Total mult-adds (M): 2.12
==========================================================================================
Input size (MB): 3.84
Forward/backward pass size (MB): 0.68
…
