…
::: ##:::: ##:::: ##: ##::. ##: ########:: ########: ##:::: ##:
:::..:::::..:::::..::..::::..::........:::........::..:::::..::

2023-04-27 05:31:22.421 | INFO     | models.temporal_integrators:summarize:571 - [34mofficial PyTorch implementation.[0m
2023-04-27 05:31:22.614 | INFO     | models.temporal_integrators:summarize:593 - Network summary:
==========================================================================================
Layer (type:depth-idx)                   Output Shape              Param #
==========================================================================================
B2BsqrtTANDEM                            [150, 50, 3, 3]           --
├─PositionalEncoding: 1-1                [7200, 3, 128]            --
│    └─Dropout: 2-1                      [3, 7200, 128]            --
├─LSTM: 1-2                              [7200, 3, 24]             14,688
│    └─Sigmoid: 2-2                      [7200, 24]                --
│    └─Sigmoid: 2-3                      [7200, 24]                --
│    └─Sigmoid: 2-4                      [7200, 24]                --
│    └─Sigmoid: 2-5                      [7200, 24]                --
│    └─Sigmoid: 2-6                      [7200, 24]                --
│    └─Sigmoid: 2-7                      [7200, 24]                --
│    └─Sigmoid: 2-8                      [7200, 24]                --
│    └─Sigmoid: 2-9                      [7200, 24]                --
│    └─Sigmoid: 2-10                     [7200, 24]                --
│    └─Sigmoid: 2-11                     [7200, 24]                --
│    └─Sigmoid: 2-12                     [7200, 24]                --
│    └─Sigmoid: 2-13                     [7200, 24]                --
│    └─Sigmoid: 2-14                     [7200, 24]                --
│    └─Sigmoid: 2-15                     [7200, 24]                --
│    └─Sigmoid: 2-16                     [7200, 24]                --
├─LayerNorm: 1-3                         [7200, 24]                48
├─ReLU: 1-4                              [7200, 24]                --
├─Linear: 1-5                            [7200, 3]                 75
├─LayerNorm: 1-6                         [7200, 24]                (recursive)
├─ReLU: 1-7                              [7200, 24]                --
├─Linear: 1-8                            [7200, 3]                 (recursive)
├─LayerNorm: 1-9                         [7200, 24]                (recursive)
├─ReLU: 1-10                             [7200, 24]                --
├─Linear: 1-11                           [7200, 3]                 (recursive)
==========================================================================================
Total params: 14,811
Trainable params: 14,811
Non-trainable params: 0
Total mult-adds (M): 2.66
==========================================================================================
Input size (MB): 3.84
Forward/backward pass size (MB): 4.67
…
