…
::: ##:::: ##:::: ##: ##::. ##: ########:: ########: ##:::: ##:
:::..:::::..:::::..::..::::..::........:::........::..:::::..::

2023-04-28 15:09:22.956 | INFO     | models.temporal_integrators:summarize:571 - [34mofficial PyTorch implementation.[0m
2023-04-28 15:09:23.015 | INFO     | models.temporal_integrators:summarize:593 - Network summary:
==========================================================================================
Layer (type:depth-idx)                   Output Shape              Param #
==========================================================================================
B2BsqrtTANDEM                            [150, 50, 3, 3]           259
├─LSTM: 1-1                              [7350, 2, 123]            123,984
│    └─Tanh: 2-1                         [7350, 123]               --
│    └─Tanh: 2-2                         [7350, 123]               --
│    └─Tanh: 2-3                         [7350, 123]               --
│    └─Tanh: 2-4                         [7350, 123]               --
│    └─Tanh: 2-5                         [7350, 123]               --
│    └─Tanh: 2-6                         [7350, 123]               --
├─Linear: 1-2                            [7350, 3]                 372
├─Linear: 1-3                            [7350, 3]                 (recursive)
==========================================================================================
Total params: 124,615
Trainable params: 124,615
Non-trainable params: 0
Total mult-adds (M): 5.47
==========================================================================================
Input size (MB): 3.84
Forward/backward pass size (MB): 0.35
…
