…
::: ##:::: ##:::: ##: ##::. ##: ########:: ########: ##:::: ##:
:::..:::::..:::::..::..::::..::........:::........::..:::::..::

2023-04-28 16:16:12.451 | INFO     | models.temporal_integrators:summarize:571 - [34mofficial PyTorch implementation.[0m
2023-04-28 16:16:12.513 | INFO     | models.temporal_integrators:summarize:593 - Network summary:
==========================================================================================
Layer (type:depth-idx)                   Output Shape              Param #
==========================================================================================
B2BsqrtTANDEM                            [150, 50, 3, 3]           3
├─PositionalEncoding: 1-1                [7200, 3, 128]            --
│    └─Dropout: 2-1                      [3, 7200, 128]            --
├─LSTM: 1-2                              [7200, 3, 66]             51,480
│    └─Tanh: 2-2                         [7200, 66]                --
│    └─Tanh: 2-3                         [7200, 66]                --
│    └─Tanh: 2-4                         [7200, 66]                --
│    └─Sigmoid: 2-5                      [7200, 66]                --
│    └─Sigmoid: 2-6                      [7200, 66]                --
│    └─Tanh: 2-7                         [7200, 66]                --
│    └─Tanh: 2-8                         [7200, 66]                --
│    └─Tanh: 2-9                         [7200, 66]                --
│    └─Sigmoid: 2-10                     [7200, 66]                --
│    └─Sigmoid: 2-11                     [7200, 66]                --
│    └─Tanh: 2-12                        [7200, 66]                --
│    └─Tanh: 2-13                        [7200, 66]                --
│    └─Tanh: 2-14                        [7200, 66]                --
│    └─Sigmoid: 2-15                     [7200, 66]                --
│    └─Sigmoid: 2-16                     [7200, 66]                --
├─Linear: 1-3                            [7200, 3]                 201
├─Linear: 1-4                            [7200, 3]                 (recursive)
├─Linear: 1-5                            [7200, 3]                 (recursive)
==========================================================================================
Total params: 51,684
Trainable params: 51,684
Non-trainable params: 0
Total mult-adds (M): 4.34
==========================================================================================
…
