…
::: ##:::: ##:::: ##: ##::. ##: ########:: ########: ##:::: ##:
:::..:::::..:::::..::..::::..::........:::........::..:::::..::

2023-04-28 00:47:10.274 | INFO     | models.temporal_integrators:summarize:571 - [34mofficial PyTorch implementation.[0m
2023-04-28 00:47:10.351 | INFO     | models.temporal_integrators:summarize:593 - Network summary:
==========================================================================================
Layer (type:depth-idx)                   Output Shape              Param #
==========================================================================================
B2BsqrtTANDEM                            [150, 50, 3, 3]           3
├─PositionalEncoding: 1-1                [7200, 3, 128]            --
│    └─Dropout: 2-1                      [3, 7200, 128]            --
├─LSTM: 1-2                              [7200, 3, 85]             72,760
│    └─Sigmoid: 2-2                      [7200, 85]                --
│    └─Sigmoid: 2-3                      [7200, 85]                --
│    └─Sigmoid: 2-4                      [7200, 85]                --
│    └─Sigmoid: 2-5                      [7200, 85]                --
│    └─Sigmoid: 2-6                      [7200, 85]                --
│    └─Sigmoid: 2-7                      [7200, 85]                --
│    └─Sigmoid: 2-8                      [7200, 85]                --
│    └─Sigmoid: 2-9                      [7200, 85]                --
│    └─Sigmoid: 2-10                     [7200, 85]                --
├─LayerNorm: 1-3                         [7200, 85]                170
├─GELU: 1-4                              [7200, 85]                --
├─Linear: 1-5                            [7200, 3]                 258
├─LayerNorm: 1-6                         [7200, 85]                (recursive)
├─GELU: 1-7                              [7200, 85]                --
├─Linear: 1-8                            [7200, 3]                 (recursive)
├─LayerNorm: 1-9                         [7200, 85]                (recursive)
├─GELU: 1-10                             [7200, 85]                --
├─Linear: 1-11                           [7200, 3]                 (recursive)
==========================================================================================
Total params: 73,191
Trainable params: 73,191
Non-trainable params: 0
Total mult-adds (M): 9.24
==========================================================================================
Input size (MB): 3.84
Forward/backward pass size (MB): 15.21
…
