…
::: ##:::: ##:::: ##: ##::. ##: ########:: ########: ##:::: ##:
:::..:::::..:::::..::..::::..::........:::........::..:::::..::

2023-04-28 19:40:59.601 | INFO     | models.temporal_integrators:summarize:571 - [34mofficial PyTorch implementation.[0m
2023-04-28 19:40:59.662 | INFO     | models.temporal_integrators:summarize:593 - Network summary:
==========================================================================================
Layer (type:depth-idx)                   Output Shape              Param #
==========================================================================================
B2BsqrtTANDEM                            [150, 50, 3, 3]           131
├─LSTM: 1-1                              [7500, 1, 83]             70,384
│    └─Sigmoid: 2-1                      [7500, 83]                --
│    └─Sigmoid: 2-2                      [7500, 83]                --
│    └─Sigmoid: 2-3                      [7500, 83]                --
├─GELU: 1-2                              [7500, 83]                --
├─Linear: 1-3                            [7500, 3]                 252
==========================================================================================
Total params: 70,767
Trainable params: 70,767
Non-trainable params: 0
Total mult-adds (M): 1.89
==========================================================================================
Input size (MB): 3.84
Forward/backward pass size (MB): 0.18
Params size (MB): 0.00
Estimated Total Size (MB): 4.02
==========================================================================================
…
