…
::: ##:::: ##:::: ##: ##::. ##: ########:: ########: ##:::: ##:
:::..:::::..:::::..::..::::..::........:::........::..:::::..::

2023-04-27 05:04:36.078 | INFO     | models.temporal_integrators:summarize:571 - [34mofficial PyTorch implementation.[0m
2023-04-27 05:04:37.481 | INFO     | models.temporal_integrators:summarize:593 - Network summary:
==========================================================================================
Layer (type:depth-idx)                   Output Shape              Param #
==========================================================================================
B2BsqrtTANDEM                            [150, 50, 3, 3]           259
├─LSTM: 1-1                              [7350, 2, 96]             86,400
│    └─Sigmoid: 2-1                      [7350, 96]                --
│    └─Sigmoid: 2-2                      [7350, 96]                --
│    └─Sigmoid: 2-3                      [7350, 96]                --
│    └─Tanh: 2-4                         [7350, 96]                --
│    └─Tanh: 2-5                         [7350, 96]                --
│    └─Sigmoid: 2-6                      [7350, 96]                --
│    └─Sigmoid: 2-7                      [7350, 96]                --
│    └─Sigmoid: 2-8                      [7350, 96]                --
│    └─Tanh: 2-9                         [7350, 96]                --
│    └─Tanh: 2-10                        [7350, 96]                --
│    └─Tanh: 2-11                        [7350, 96]                --
├─Linear: 1-2                            [7350, 3]                 291
├─LSTM: 1-3                              --                        (recursive)
│    └─Tanh: 2-12                        [7350, 96]                --
├─Linear: 1-4                            [7350, 3]                 (recursive)
==========================================================================================
Total params: 86,950
Trainable params: 86,950
Non-trainable params: 0
Total mult-adds (M): 4.28
==========================================================================================
Input size (MB): 3.84
Forward/backward pass size (MB): 0.35
…
