…
::: ##:::: ##:::: ##: ##::. ##: ########:: ########: ##:::: ##:
:::..:::::..:::::..::..::::..::........:::........::..:::::..::

2023-04-27 05:42:34.570 | INFO     | models.temporal_integrators:summarize:571 - [34mofficial PyTorch implementation.[0m
2023-04-27 05:42:35.119 | INFO     | models.temporal_integrators:summarize:593 - Network summary:
==========================================================================================
Layer (type:depth-idx)                   Output Shape              Param #
==========================================================================================
B2BsqrtTANDEM                            [150, 50, 3, 3]           --
├─PositionalEncoding: 1-1                [6750, 6, 128]            --
│    └─Dropout: 2-1                      [6, 6750, 128]            --
├─LSTM: 1-2                              [6750, 6, 34]             22,168
│    └─Sigmoid: 2-2                      [6750, 34]                --
│    └─Sigmoid: 2-3                      [6750, 34]                --
│    └─Sigmoid: 2-4                      [6750, 34]                --
│    └─Sigmoid: 2-5                      [6750, 34]                --
│    └─Sigmoid: 2-6                      [6750, 34]                --
│    └─Sigmoid: 2-7                      [6750, 34]                --
│    └─Sigmoid: 2-8                      [6750, 34]                --
│    └─Sigmoid: 2-9                      [6750, 34]                --
│    └─Sigmoid: 2-10                     [6750, 34]                --
│    └─Sigmoid: 2-11                     [6750, 34]                --
│    └─Sigmoid: 2-12                     [6750, 34]                --
│    └─Sigmoid: 2-13                     [6750, 34]                --
│    └─Sigmoid: 2-14                     [6750, 34]                --
│    └─Sigmoid: 2-15                     [6750, 34]                --
│    └─Sigmoid: 2-16                     [6750, 34]                --
│    └─Sigmoid: 2-17                     [6750, 34]                --
│    └─Sigmoid: 2-18                     [6750, 34]                --
│    └─Sigmoid: 2-19                     [6750, 34]                --
├─LayerNorm: 1-3                         [6750, 34]                68
├─Linear: 1-4                            [6750, 3]                 105
├─LayerNorm: 1-5                         [6750, 34]                (recursive)
├─Linear: 1-6                            [6750, 3]                 (recursive)
├─LayerNorm: 1-7                         [6750, 34]                (recursive)
├─Linear: 1-8                            [6750, 3]                 (recursive)
├─LayerNorm: 1-9                         [6750, 34]                (recursive)
├─Linear: 1-10                           [6750, 3]                 (recursive)
…
