…
::: ##:::: ##:::: ##: ##::. ##: ########:: ########: ##:::: ##:
:::..:::::..:::::..::..::::..::........:::........::..:::::..::

2023-04-28 15:22:21.149 | INFO     | models.temporal_integrators:summarize:571 - [34mofficial PyTorch implementation.[0m
2023-04-28 15:22:21.220 | INFO     | models.temporal_integrators:summarize:593 - Network summary:
==========================================================================================
Layer (type:depth-idx)                   Output Shape              Param #
==========================================================================================
B2BsqrtTANDEM                            [150, 50, 3, 3]           3
├─PositionalEncoding: 1-1                [7200, 3, 128]            --
│    └─Dropout: 2-1                      [3, 7200, 128]            --
├─LSTM: 1-2                              [7200, 3, 16]             9,280
│    └─Tanh: 2-2                         [7200, 16]                --
│    └─Tanh: 2-3                         [7200, 16]                --
│    └─Tanh: 2-4                         [7200, 16]                --
│    └─Tanh: 2-5                         [7200, 16]                --
│    └─Tanh: 2-6                         [7200, 16]                --
│    └─Tanh: 2-7                         [7200, 16]                --
│    └─Tanh: 2-8                         [7200, 16]                --
│    └─Tanh: 2-9                         [7200, 16]                --
│    └─Tanh: 2-10                        [7200, 16]                --
├─ReLU: 1-3                              [7200, 16]                --
├─Linear: 1-4                            [7200, 3]                 51
├─ReLU: 1-5                              [7200, 16]                --
├─Linear: 1-6                            [7200, 3]                 (recursive)
├─ReLU: 1-7                              [7200, 16]                --
├─Linear: 1-8                            [7200, 3]                 (recursive)
==========================================================================================
Total params: 9,334
Trainable params: 9,334
Non-trainable params: 0
Total mult-adds (M): 1.10
==========================================================================================
Input size (MB): 3.84
Forward/backward pass size (MB): 0.52
…
