…
::: ##:::: ##:::: ##: ##::. ##: ########:: ########: ##:::: ##:
:::..:::::..:::::..::..::::..::........:::........::..:::::..::

2023-04-27 05:06:21.610 | INFO     | models.temporal_integrators:summarize:571 - [34mofficial PyTorch implementation.[0m
2023-04-27 05:06:22.929 | INFO     | models.temporal_integrators:summarize:593 - Network summary:
==========================================================================================
Layer (type:depth-idx)                   Output Shape              Param #
==========================================================================================
B2BsqrtTANDEM                            [150, 50, 3, 3]           768
├─LSTM: 1-1                              [6750, 6, 29]             18,328
│    └─Tanh: 2-1                         [6750, 29]                --
│    └─Tanh: 2-2                         [6750, 29]                --
│    └─Tanh: 2-3                         [6750, 29]                --
│    └─Tanh: 2-4                         [6750, 29]                --
│    └─Tanh: 2-5                         [6750, 29]                --
│    └─Tanh: 2-6                         [6750, 29]                --
│    └─Tanh: 2-7                         [6750, 29]                --
│    └─Tanh: 2-8                         [6750, 29]                --
│    └─Tanh: 2-9                         [6750, 29]                --
│    └─Tanh: 2-10                        [6750, 29]                --
│    └─Tanh: 2-11                        [6750, 29]                --
│    └─Tanh: 2-12                        [6750, 29]                --
│    └─Tanh: 2-13                        [6750, 29]                --
│    └─Tanh: 2-14                        [6750, 29]                --
│    └─Tanh: 2-15                        [6750, 29]                --
│    └─Tanh: 2-16                        [6750, 29]                --
│    └─Tanh: 2-17                        [6750, 29]                --
│    └─Tanh: 2-18                        [6750, 29]                --
│    └─Tanh: 2-19                        [6750, 29]                --
│    └─Tanh: 2-20                        [6750, 29]                --
│    └─Tanh: 2-21                        [6750, 29]                --
│    └─Tanh: 2-22                        [6750, 29]                --
│    └─Tanh: 2-23                        [6750, 29]                --
│    └─Tanh: 2-24                        [6750, 29]                --
│    └─Tanh: 2-25                        [6750, 29]                --
│    └─Tanh: 2-26                        [6750, 29]                --
│    └─Tanh: 2-27                        [6750, 29]                --
│    └─Tanh: 2-28                        [6750, 29]                --
│    └─Tanh: 2-29                        [6750, 29]                --
│    └─Tanh: 2-30                        [6750, 29]                --
├─Linear: 1-2                            [6750, 3]                 90
├─Linear: 1-3                            [6750, 3]                 (recursive)
├─Linear: 1-4                            [6750, 3]                 (recursive)
├─Linear: 1-5                            [6750, 3]                 (recursive)
├─Linear: 1-6                            [6750, 3]                 (recursive)
├─Linear: 1-7                            [6750, 3]                 (recursive)
==========================================================================================
…
