…
::: ##:::: ##:::: ##: ##::. ##: ########:: ########: ##:::: ##:
:::..:::::..:::::..::..::::..::........:::........::..:::::..::

2023-04-28 21:27:18.701 | INFO     | models.temporal_integrators:summarize:571 - [34mofficial PyTorch implementation.[0m
2023-04-28 21:27:18.762 | INFO     | models.temporal_integrators:summarize:593 - Network summary:
==========================================================================================
Layer (type:depth-idx)                   Output Shape              Param #
==========================================================================================
B2BsqrtTANDEM                            [150, 50, 3, 3]           259
├─LSTM: 1-1                              [7350, 2, 49]             34,888
│    └─Tanh: 2-1                         [7350, 49]                --
│    └─Tanh: 2-2                         [7350, 49]                --
│    └─Tanh: 2-3                         [7350, 49]                --
│    └─Tanh: 2-4                         [7350, 49]                --
│    └─Tanh: 2-5                         [7350, 49]                --
│    └─Tanh: 2-6                         [7350, 49]                --
├─GELU: 1-2                              [7350, 49]                --
├─Linear: 1-3                            [7350, 3]                 150
├─GELU: 1-4                              [7350, 49]                --
├─Linear: 1-5                            [7350, 3]                 (recursive)
==========================================================================================
Total params: 35,297
Trainable params: 35,297
Non-trainable params: 0
Total mult-adds (M): 2.21
==========================================================================================
Input size (MB): 3.84
Forward/backward pass size (MB): 0.35
…
