…
::: ##:::: ##:::: ##: ##::. ##: ########:: ########: ##:::: ##:
:::..:::::..:::::..::..::::..::........:::........::..:::::..::

2023-04-28 00:21:56.578 | INFO     | models.temporal_integrators:summarize:571 - [34mofficial PyTorch implementation.[0m
2023-04-28 00:21:57.898 | INFO     | models.temporal_integrators:summarize:593 - Network summary:
==========================================================================================
Layer (type:depth-idx)                   Output Shape              Param #
==========================================================================================
B2BsqrtTANDEM                            [150, 50, 3, 3]           640
├─LSTM: 1-1                              [6900, 5, 27]             16,848
│    └─Sigmoid: 2-1                      [6900, 27]                --
│    └─Sigmoid: 2-2                      [6900, 27]                --
│    └─Sigmoid: 2-3                      [6900, 27]                --
│    └─Sigmoid: 2-4                      [6900, 27]                --
│    └─Sigmoid: 2-5                      [6900, 27]                --
│    └─Sigmoid: 2-6                      [6900, 27]                --
│    └─Sigmoid: 2-7                      [6900, 27]                --
│    └─Sigmoid: 2-8                      [6900, 27]                --
│    └─Sigmoid: 2-9                      [6900, 27]                --
│    └─Sigmoid: 2-10                     [6900, 27]                --
│    └─Sigmoid: 2-11                     [6900, 27]                --
│    └─Sigmoid: 2-12                     [6900, 27]                --
│    └─Sigmoid: 2-13                     [6900, 27]                --
│    └─Sigmoid: 2-14                     [6900, 27]                --
│    └─Sigmoid: 2-15                     [6900, 27]                --
├─Linear: 1-2                            [6900, 3]                 84
├─Linear: 1-3                            [6900, 3]                 (recursive)
├─Linear: 1-4                            [6900, 3]                 (recursive)
├─Linear: 1-5                            [6900, 3]                 (recursive)
├─Linear: 1-6                            [6900, 3]                 (recursive)
==========================================================================================
…
