…
::: ##:::: ##:::: ##: ##::. ##: ########:: ########: ##:::: ##:
:::..:::::..:::::..::..::::..::........:::........::..:::::..::

2023-04-28 04:19:38.931 | INFO     | models.temporal_integrators:summarize:571 - [34mofficial PyTorch implementation.[0m
2023-04-28 04:19:39.362 | INFO     | models.temporal_integrators:summarize:593 - Network summary:
==========================================================================================
Layer (type:depth-idx)                   Output Shape              Param #
==========================================================================================
B2BsqrtTANDEM                            [150, 50, 3, 3]           768
├─LSTM: 1-1                              [6750, 6, 73]             58,984
│    └─Sigmoid: 2-1                      [6750, 73]                --
│    └─Sigmoid: 2-2                      [6750, 73]                --
│    └─Sigmoid: 2-3                      [6750, 73]                --
│    └─Tanh: 2-4                         [6750, 73]                --
│    └─Tanh: 2-5                         [6750, 73]                --
│    └─Sigmoid: 2-6                      [6750, 73]                --
│    └─Sigmoid: 2-7                      [6750, 73]                --
│    └─Sigmoid: 2-8                      [6750, 73]                --
│    └─Tanh: 2-9                         [6750, 73]                --
│    └─Tanh: 2-10                        [6750, 73]                --
│    └─Sigmoid: 2-11                     [6750, 73]                --
│    └─Sigmoid: 2-12                     [6750, 73]                --
│    └─Sigmoid: 2-13                     [6750, 73]                --
│    └─Tanh: 2-14                        [6750, 73]                --
│    └─Tanh: 2-15                        [6750, 73]                --
│    └─Sigmoid: 2-16                     [6750, 73]                --
│    └─Sigmoid: 2-17                     [6750, 73]                --
│    └─Sigmoid: 2-18                     [6750, 73]                --
│    └─Tanh: 2-19                        [6750, 73]                --
│    └─Tanh: 2-20                        [6750, 73]                --
│    └─Sigmoid: 2-21                     [6750, 73]                --
│    └─Sigmoid: 2-22                     [6750, 73]                --
│    └─Sigmoid: 2-23                     [6750, 73]                --
│    └─Tanh: 2-24                        [6750, 73]                --
│    └─Tanh: 2-25                        [6750, 73]                --
│    └─Sigmoid: 2-26                     [6750, 73]                --
│    └─Sigmoid: 2-27                     [6750, 73]                --
│    └─Sigmoid: 2-28                     [6750, 73]                --
│    └─Tanh: 2-29                        [6750, 73]                --
│    └─Tanh: 2-30                        [6750, 73]                --
├─ReLU: 1-2                              [6750, 73]                --
├─Linear: 1-3                            [6750, 3]                 222
├─ReLU: 1-4                              [6750, 73]                --
├─Linear: 1-5                            [6750, 3]                 (recursive)
├─ReLU: 1-6                              [6750, 73]                --
├─Linear: 1-7                            [6750, 3]                 (recursive)
├─ReLU: 1-8                              [6750, 73]                --
├─Linear: 1-9                            [6750, 3]                 (recursive)
├─ReLU: 1-10                             [6750, 73]                --
├─Linear: 1-11                           [6750, 3]                 (recursive)
├─ReLU: 1-12                             [6750, 73]                --
├─Linear: 1-13                           [6750, 3]                 (recursive)
==========================================================================================
Total params: 59,974
Trainable params: 59,974
Non-trainable params: 0
Total mult-adds (M): 8.99
==========================================================================================
Input size (MB): 3.84
Forward/backward pass size (MB): 0.97
…
