…
:::..:::::..:::::..::..::::..::........:::........::..:::::..::

2023-04-28 11:11:02.860 | INFO     | models.temporal_integrators:summarize:571 - [34mofficial PyTorch implementation.[0m
2023-04-28 11:11:03.391 | INFO     | models.temporal_integrators:summarize:593 - Network summary:
===============================================================================================
Layer (type:depth-idx)                        Output Shape              Param #
===============================================================================================
TANDEMformer                                  [150, 50, 3, 3]           256
├─TransformerEncoder: 1-1                     [7350, 1, 128]            --
│    └─ModuleList: 2-2                        --                        (recursive)
│    │    └─TransformerEncoderLayer: 3-1      [7350, 1, 128]            74,912
│    │    └─TransformerEncoderLayer: 3-2      [7350, 1, 128]            74,912
├─Linear: 1-2                                 [7350, 64]                8,256
├─Dropout: 1-3                                [7350, 64]                --
├─TransformerEncoder: 1-4                     [7350, 2, 128]            (recursive)
│    └─ModuleList: 2-2                        --                        (recursive)
│    │    └─TransformerEncoderLayer: 3-3      [7350, 2, 128]            (recursive)
│    │    └─TransformerEncoderLayer: 3-4      [7350, 2, 128]            (recursive)
├─Linear: 1-5                                 [7350, 64]                (recursive)
├─Dropout: 1-6                                [7350, 64]                --
├─LayerNorm: 1-7                              [7350, 64]                128
├─Tanh: 1-8                                   [7350, 64]                --
├─Linear: 1-9                                 [7350, 3]                 195
├─LayerNorm: 1-10                             [7350, 64]                (recursive)
├─Tanh: 1-11                                  [7350, 64]                --
├─Linear: 1-12                                [7350, 3]                 (recursive)
===============================================================================================
Total params: 158,659
Trainable params: 158,659
Non-trainable params: 0
Total mult-adds (M): 386.71
===============================================================================================
Input size (MB): 3.84
Forward/backward pass size (MB): 162.17
…
