…
:::..:::::..:::::..::..::::..::........:::........::..:::::..::

2023-04-28 01:48:12.527 | INFO     | models.temporal_integrators:summarize:571 - [34mofficial PyTorch implementation.[0m
2023-04-28 01:48:12.586 | INFO     | models.temporal_integrators:summarize:593 - Network summary:
===============================================================================================
Layer (type:depth-idx)                        Output Shape              Param #
===============================================================================================
TANDEMformer                                  [150, 50, 3, 3]           128
├─TransformerEncoder: 1-1                     [7500, 1, 128]            --
│    └─ModuleList: 2-1                        --                        --
│    │    └─TransformerEncoderLayer: 3-1      [7500, 1, 128]            83,136
├─Linear: 1-2                                 [7500, 32]                4,128
├─Dropout: 1-3                                [7500, 32]                --
├─Linear: 1-4                                 [7500, 3]                 99
===============================================================================================
Total params: 87,491
Trainable params: 87,491
Non-trainable params: 0
Total mult-adds (M): 159.86
===============================================================================================
Input size (MB): 3.84
Forward/backward pass size (MB): 28.98
Params size (MB): 0.09
Estimated Total Size (MB): 32.91
…
