…
:::..:::::..:::::..::..::::..::........:::........::..:::::..::

2023-04-28 12:29:59.020 | INFO     | models.temporal_integrators:summarize:571 - [34mofficial PyTorch implementation.[0m
2023-04-28 12:29:59.421 | INFO     | models.temporal_integrators:summarize:593 - Network summary:
===============================================================================================
Layer (type:depth-idx)                        Output Shape              Param #
===============================================================================================
TANDEMformer                                  [150, 50, 3, 3]           515
├─TransformerEncoder: 1-1                     [7050, 1, 128]            --
│    └─ModuleList: 2-4                        --                        (recursive)
│    │    └─TransformerEncoderLayer: 3-1      [7050, 1, 128]            74,912
│    │    └─TransformerEncoderLayer: 3-2      [7050, 1, 128]            74,912
├─Linear: 1-2                                 [7050, 64]                8,256
├─Dropout: 1-3                                [7050, 64]                --
├─TransformerEncoder: 1-4                     [7050, 2, 128]            (recursive)
│    └─ModuleList: 2-4                        --                        (recursive)
│    │    └─TransformerEncoderLayer: 3-3      [7050, 2, 128]            (recursive)
│    │    └─TransformerEncoderLayer: 3-4      [7050, 2, 128]            (recursive)
├─Linear: 1-5                                 [7050, 64]                (recursive)
├─Dropout: 1-6                                [7050, 64]                --
├─TransformerEncoder: 1-7                     [7050, 3, 128]            (recursive)
│    └─ModuleList: 2-4                        --                        (recursive)
│    │    └─TransformerEncoderLayer: 3-5      [7050, 3, 128]            (recursive)
│    │    └─TransformerEncoderLayer: 3-6      [7050, 3, 128]            (recursive)
├─Linear: 1-8                                 [7050, 64]                (recursive)
├─Dropout: 1-9                                [7050, 64]                --
├─TransformerEncoder: 1-10                    [7050, 4, 128]            (recursive)
│    └─ModuleList: 2-4                        --                        (recursive)
│    │    └─TransformerEncoderLayer: 3-7      [7050, 4, 128]            (recursive)
│    │    └─TransformerEncoderLayer: 3-8      [7050, 4, 128]            (recursive)
├─Linear: 1-11                                [7050, 64]                (recursive)
├─Dropout: 1-12                               [7050, 64]                --
├─LayerNorm: 1-13                             [7050, 64]                128
├─ReLU: 1-14                                  [7050, 64]                --
├─Linear: 1-15                                [7050, 3]                 195
├─LayerNorm: 1-16                             [7050, 64]                (recursive)
├─ReLU: 1-17                                  [7050, 64]                --
├─Linear: 1-18                                [7050, 3]                 (recursive)
├─LayerNorm: 1-19                             [7050, 64]                (recursive)
├─ReLU: 1-20                                  [7050, 64]                --
├─Linear: 1-21                                [7050, 3]                 (recursive)
├─LayerNorm: 1-22                             [7050, 64]                (recursive)
├─ReLU: 1-23                                  [7050, 64]                --
├─Linear: 1-24                                [7050, 3]                 (recursive)
===============================================================================================
Total params: 158,918
Trainable params: 158,918
Non-trainable params: 0
Total mult-adds (M): 241.93
===============================================================================================
Input size (MB): 3.84
Forward/backward pass size (MB): 29.55
…
