…
:::..:::::..:::::..::..::::..::........:::........::..:::::..::

2023-04-28 09:23:34.340 | INFO     | models.temporal_integrators:summarize:571 - [34mofficial PyTorch implementation.[0m
2023-04-28 09:23:34.854 | INFO     | models.temporal_integrators:summarize:593 - Network summary:
===============================================================================================
Layer (type:depth-idx)                        Output Shape              Param #
===============================================================================================
TANDEMformer                                  [150, 50, 3, 3]           512
├─TransformerEncoder: 1-1                     [7050, 1, 128]            --
│    └─ModuleList: 2-4                        --                        (recursive)
│    │    └─TransformerEncoderLayer: 3-1      [7050, 1, 128]            83,136
├─Linear: 1-2                                 [7050, 32]                4,128
├─Dropout: 1-3                                [7050, 32]                --
├─TransformerEncoder: 1-4                     [7050, 2, 128]            (recursive)
│    └─ModuleList: 2-4                        --                        (recursive)
│    │    └─TransformerEncoderLayer: 3-2      [7050, 2, 128]            (recursive)
├─Linear: 1-5                                 [7050, 32]                (recursive)
├─Dropout: 1-6                                [7050, 32]                --
├─TransformerEncoder: 1-7                     [7050, 3, 128]            (recursive)
│    └─ModuleList: 2-4                        --                        (recursive)
│    │    └─TransformerEncoderLayer: 3-3      [7050, 3, 128]            (recursive)
├─Linear: 1-8                                 [7050, 32]                (recursive)
├─Dropout: 1-9                                [7050, 32]                --
├─TransformerEncoder: 1-10                    [7050, 4, 128]            (recursive)
│    └─ModuleList: 2-4                        --                        (recursive)
│    │    └─TransformerEncoderLayer: 3-4      [7050, 4, 128]            (recursive)
├─Linear: 1-11                                [7050, 32]                (recursive)
├─Dropout: 1-12                               [7050, 32]                --
├─LayerNorm: 1-13                             [7050, 32]                64
├─Tanh: 1-14                                  [7050, 32]                --
├─Linear: 1-15                                [7050, 3]                 99
├─LayerNorm: 1-16                             [7050, 32]                (recursive)
├─Tanh: 1-17                                  [7050, 32]                --
├─Linear: 1-18                                [7050, 3]                 (recursive)
├─LayerNorm: 1-19                             [7050, 32]                (recursive)
├─Tanh: 1-20                                  [7050, 32]                --
├─Linear: 1-21                                [7050, 3]                 (recursive)
├─LayerNorm: 1-22                             [7050, 32]                (recursive)
├─Tanh: 1-23                                  [7050, 32]                --
├─Linear: 1-24                                [7050, 3]                 (recursive)
===============================================================================================
Total params: 87,939
Trainable params: 87,939
Non-trainable params: 0
Total mult-adds (M): 602.89
===============================================================================================
Input size (MB): 3.84
Forward/backward pass size (MB): 267.79
…
