…
:::..:::::..:::::..::..::::..::........:::........::..:::::..::

2023-04-28 03:50:33.194 | INFO     | models.temporal_integrators:summarize:571 - [34mofficial PyTorch implementation.[0m
2023-04-28 03:50:35.007 | INFO     | models.temporal_integrators:summarize:593 - Network summary:
===============================================================================================
Layer (type:depth-idx)                        Output Shape              Param #
===============================================================================================
TANDEMformer                                  [150, 50, 3, 3]           387
├─TransformerEncoder: 1-1                     [7200, 1, 128]            --
│    └─ModuleList: 2-3                        --                        (recursive)
│    │    └─TransformerEncoderLayer: 3-1      [7200, 1, 128]            74,912
├─Linear: 1-2                                 [7200, 32]                4,128
├─Dropout: 1-3                                [7200, 32]                --
├─TransformerEncoder: 1-4                     [7200, 2, 128]            (recursive)
│    └─ModuleList: 2-3                        --                        (recursive)
│    │    └─TransformerEncoderLayer: 3-2      [7200, 2, 128]            (recursive)
├─Linear: 1-5                                 [7200, 32]                (recursive)
├─Dropout: 1-6                                [7200, 32]                --
├─TransformerEncoder: 1-7                     [7200, 3, 128]            (recursive)
│    └─ModuleList: 2-3                        --                        (recursive)
│    │    └─TransformerEncoderLayer: 3-3      [7200, 3, 128]            (recursive)
├─Linear: 1-8                                 [7200, 32]                (recursive)
├─Dropout: 1-9                                [7200, 32]                --
├─LayerNorm: 1-10                             [7200, 32]                64
├─Linear: 1-11                                [7200, 3]                 99
├─LayerNorm: 1-12                             [7200, 32]                (recursive)
├─Linear: 1-13                                [7200, 3]                 (recursive)
├─LayerNorm: 1-14                             [7200, 32]                (recursive)
├─Linear: 1-15                                [7200, 3]                 (recursive)
===============================================================================================
…
