…
:::..:::::..:::::..::..::::..::........:::........::..:::::..::

2023-04-28 18:32:06.221 | INFO     | models.temporal_integrators:summarize:571 - [34mofficial PyTorch implementation.[0m
2023-04-28 18:32:06.310 | INFO     | models.temporal_integrators:summarize:593 - Network summary:
===============================================================================================
Layer (type:depth-idx)                        Output Shape              Param #
===============================================================================================
TANDEMformer                                  [150, 50, 3, 3]           643
├─TransformerEncoder: 1-1                     [6900, 1, 128]            --
│    └─ModuleList: 2-5                        --                        (recursive)
│    │    └─TransformerEncoderLayer: 3-1      [6900, 1, 128]            74,912
├─Linear: 1-2                                 [6900, 32]                4,128
├─Dropout: 1-3                                [6900, 32]                --
├─TransformerEncoder: 1-4                     [6900, 2, 128]            (recursive)
│    └─ModuleList: 2-5                        --                        (recursive)
│    │    └─TransformerEncoderLayer: 3-2      [6900, 2, 128]            (recursive)
├─Linear: 1-5                                 [6900, 32]                (recursive)
├─Dropout: 1-6                                [6900, 32]                --
├─TransformerEncoder: 1-7                     [6900, 3, 128]            (recursive)
│    └─ModuleList: 2-5                        --                        (recursive)
│    │    └─TransformerEncoderLayer: 3-3      [6900, 3, 128]            (recursive)
├─Linear: 1-8                                 [6900, 32]                (recursive)
├─Dropout: 1-9                                [6900, 32]                --
├─TransformerEncoder: 1-10                    [6900, 4, 128]            (recursive)
│    └─ModuleList: 2-5                        --                        (recursive)
│    │    └─TransformerEncoderLayer: 3-4      [6900, 4, 128]            (recursive)
├─Linear: 1-11                                [6900, 32]                (recursive)
├─Dropout: 1-12                               [6900, 32]                --
├─TransformerEncoder: 1-13                    [6900, 5, 128]            (recursive)
│    └─ModuleList: 2-5                        --                        (recursive)
│    │    └─TransformerEncoderLayer: 3-5      [6900, 5, 128]            (recursive)
├─Linear: 1-14                                [6900, 32]                (recursive)
├─Dropout: 1-15                               [6900, 32]                --
├─GELU: 1-16                                  [6900, 32]                --
├─Linear: 1-17                                [6900, 3]                 99
├─GELU: 1-18                                  [6900, 32]                --
├─Linear: 1-19                                [6900, 3]                 (recursive)
├─GELU: 1-20                                  [6900, 32]                --
├─Linear: 1-21                                [6900, 3]                 (recursive)
├─GELU: 1-22                                  [6900, 32]                --
├─Linear: 1-23                                [6900, 3]                 (recursive)
├─GELU: 1-24                                  [6900, 32]                --
├─Linear: 1-25                                [6900, 3]                 (recursive)
===============================================================================================
Total params: 79,782
Trainable params: 79,782
Non-trainable params: 0
Total mult-adds (M): 145.83
===============================================================================================
Input size (MB): 3.84
Forward/backward pass size (MB): 9.66
…
