…
:::..:::::..:::::..::..::::..::........:::........::..:::::..::

2023-04-28 17:08:44.616 | INFO     | models.temporal_integrators:summarize:571 - [34mofficial PyTorch implementation.[0m
2023-04-28 17:08:44.695 | INFO     | models.temporal_integrators:summarize:593 - Network summary:
===============================================================================================
Layer (type:depth-idx)                        Output Shape              Param #
===============================================================================================
TANDEMformer                                  [150, 50, 3, 3]           3
├─PositionalEncoding: 1-1                     [7050, 1, 128]            --
│    └─Dropout: 2-1                           [1, 7050, 128]            --
├─TransformerEncoder: 1-2                     [7050, 1, 128]            --
│    └─ModuleList: 2-8                        --                        (recursive)
│    │    └─TransformerEncoderLayer: 3-1      [7050, 1, 128]            74,912
├─Linear: 1-3                                 [7050, 32]                4,128
├─Dropout: 1-4                                [7050, 32]                --
├─PositionalEncoding: 1-5                     [7050, 2, 128]            --
│    └─Dropout: 2-3                           [2, 7050, 128]            --
├─TransformerEncoder: 1-6                     [7050, 2, 128]            (recursive)
│    └─ModuleList: 2-8                        --                        (recursive)
│    │    └─TransformerEncoderLayer: 3-2      [7050, 2, 128]            (recursive)
├─Linear: 1-7                                 [7050, 32]                (recursive)
├─Dropout: 1-8                                [7050, 32]                --
├─PositionalEncoding: 1-9                     [7050, 3, 128]            --
│    └─Dropout: 2-5                           [3, 7050, 128]            --
├─TransformerEncoder: 1-10                    [7050, 3, 128]            (recursive)
│    └─ModuleList: 2-8                        --                        (recursive)
│    │    └─TransformerEncoderLayer: 3-3      [7050, 3, 128]            (recursive)
├─Linear: 1-11                                [7050, 32]                (recursive)
├─Dropout: 1-12                               [7050, 32]                --
├─PositionalEncoding: 1-13                    [7050, 4, 128]            --
│    └─Dropout: 2-7                           [4, 7050, 128]            --
├─TransformerEncoder: 1-14                    [7050, 4, 128]            (recursive)
│    └─ModuleList: 2-8                        --                        (recursive)
│    │    └─TransformerEncoderLayer: 3-4      [7050, 4, 128]            (recursive)
├─Linear: 1-15                                [7050, 32]                (recursive)
├─Dropout: 1-16                               [7050, 32]                --
├─ReLU: 1-17                                  [7050, 32]                --
├─Linear: 1-18                                [7050, 3]                 99
├─ReLU: 1-19                                  [7050, 32]                --
├─Linear: 1-20                                [7050, 3]                 (recursive)
├─ReLU: 1-21                                  [7050, 32]                --
├─Linear: 1-22                                [7050, 3]                 (recursive)
├─ReLU: 1-23                                  [7050, 32]                --
├─Linear: 1-24                                [7050, 3]                 (recursive)
===============================================================================================
Total params: 79,142
Trainable params: 79,142
Non-trainable params: 0
Total mult-adds (M): 119.20
===============================================================================================
Input size (MB): 3.84
Forward/backward pass size (MB): 7.90
…
