…
:::..:::::..:::::..::..::::..::........:::........::..:::::..::

2023-04-28 19:50:27.709 | INFO     | models.temporal_integrators:summarize:571 - [34mofficial PyTorch implementation.[0m
2023-04-28 19:50:27.764 | INFO     | models.temporal_integrators:summarize:593 - Network summary:
===============================================================================================
Layer (type:depth-idx)                        Output Shape              Param #
===============================================================================================
TANDEMformer                                  [150, 50, 3, 3]           131
├─TransformerEncoder: 1-1                     [7500, 1, 128]            --
│    └─ModuleList: 2-1                        --                        --
│    │    └─TransformerEncoderLayer: 3-1      [7500, 1, 128]            74,912
├─Linear: 1-2                                 [7500, 32]                4,128
├─Dropout: 1-3                                [7500, 32]                --
├─GELU: 1-4                                   [7500, 32]                --
├─Linear: 1-5                                 [7500, 3]                 99
===============================================================================================
Total params: 79,270
Trainable params: 79,270
Non-trainable params: 0
Total mult-adds (M): 31.70
===============================================================================================
Input size (MB): 3.84
Forward/backward pass size (MB): 2.10
Params size (MB): 0.02
Estimated Total Size (MB): 5.96
…
