…
::: ##:::: ##:::: ##: ##::. ##: ########:: ########: ##:::: ##:
:::..:::::..:::::..::..::::..::........:::........::..:::::..::

2023-04-30 16:23:52.598 | INFO     | models.temporal_integrators:summarize:571 - [34mofficial PyTorch implementation.[0m
2023-04-30 16:23:52.676 | INFO     | models.temporal_integrators:summarize:593 - Network summary:
==========================================================================================
Layer (type:depth-idx)                   Output Shape              Param #
==========================================================================================
B2BsqrtTANDEM                            [150, 50, 3, 3]           512
├─LSTM: 1-1                              [7050, 4, 43]             29,584
│    └─Tanh: 2-1                         [7050, 43]                --
│    └─Tanh: 2-2                         [7050, 43]                --
│    └─Tanh: 2-3                         [7050, 43]                --
│    └─Tanh: 2-4                         [7050, 43]                --
│    └─Tanh: 2-5                         [7050, 43]                --
│    └─Tanh: 2-6                         [7050, 43]                --
│    └─Tanh: 2-7                         [7050, 43]                --
│    └─Tanh: 2-8                         [7050, 43]                --
│    └─Tanh: 2-9                         [7050, 43]                --
│    └─Tanh: 2-10                        [7050, 43]                --
│    └─Tanh: 2-11                        [7050, 43]                --
│    └─Tanh: 2-12                        [7050, 43]                --
│    └─Tanh: 2-13                        [7050, 43]                --
│    └─Tanh: 2-14                        [7050, 43]                --
│    └─Tanh: 2-15                        [7050, 43]                --
│    └─Tanh: 2-16                        [7050, 43]                --
│    └─Tanh: 2-17                        [7050, 43]                --
│    └─Tanh: 2-18                        [7050, 43]                --
│    └─Tanh: 2-19                        [7050, 43]                --
│    └─Tanh: 2-20                        [7050, 43]                --
├─Linear: 1-2                            [7050, 3]                 132
├─Linear: 1-3                            [7050, 3]                 (recursive)
├─Linear: 1-4                            [7050, 3]                 (recursive)
├─Linear: 1-5                            [7050, 3]                 (recursive)
==========================================================================================
Total params: 30,228
Trainable params: 30,228
Non-trainable params: 0
Total mult-adds (M): 3.72
…
