…
::: ##:::: ##:::: ##: ##::. ##: ########:: ########: ##:::: ##:
:::..:::::..:::::..::..::::..::........:::........::..:::::..::

2023-04-30 10:12:44.943 | INFO     | models.temporal_integrators:summarize:571 - [34mofficial PyTorch implementation.[0m
2023-04-30 10:12:45.007 | INFO     | models.temporal_integrators:summarize:593 - Network summary:
==========================================================================================
Layer (type:depth-idx)                   Output Shape              Param #
==========================================================================================
B2BsqrtTANDEM                            [150, 50, 3, 3]           --
├─PositionalEncoding: 1-1                [6750, 6, 128]            --
│    └─Dropout: 2-1                      [6, 6750, 128]            --
├─LSTM: 1-2                              [6750, 6, 70]             55,720
│    └─Sigmoid: 2-2                      [6750, 70]                --
│    └─Sigmoid: 2-3                      [6750, 70]                --
│    └─Sigmoid: 2-4                      [6750, 70]                --
│    └─Sigmoid: 2-5                      [6750, 70]                --
│    └─Sigmoid: 2-6                      [6750, 70]                --
│    └─Sigmoid: 2-7                      [6750, 70]                --
│    └─Sigmoid: 2-8                      [6750, 70]                --
│    └─Sigmoid: 2-9                      [6750, 70]                --
│    └─Sigmoid: 2-10                     [6750, 70]                --
│    └─Sigmoid: 2-11                     [6750, 70]                --
│    └─Sigmoid: 2-12                     [6750, 70]                --
│    └─Sigmoid: 2-13                     [6750, 70]                --
│    └─Sigmoid: 2-14                     [6750, 70]                --
│    └─Sigmoid: 2-15                     [6750, 70]                --
│    └─Sigmoid: 2-16                     [6750, 70]                --
│    └─Sigmoid: 2-17                     [6750, 70]                --
│    └─Sigmoid: 2-18                     [6750, 70]                --
│    └─Sigmoid: 2-19                     [6750, 70]                --
├─LayerNorm: 1-3                         [6750, 70]                140
├─ReLU: 1-4                              [6750, 70]                --
├─Linear: 1-5                            [6750, 3]                 213
├─LayerNorm: 1-6                         [6750, 70]                (recursive)
├─ReLU: 1-7                              [6750, 70]                --
├─Linear: 1-8                            [6750, 3]                 (recursive)
├─LayerNorm: 1-9                         [6750, 70]                (recursive)
├─ReLU: 1-10                             [6750, 70]                --
├─Linear: 1-11                           [6750, 3]                 (recursive)
├─LayerNorm: 1-12                        [6750, 70]                (recursive)
├─ReLU: 1-13                             [6750, 70]                --
├─Linear: 1-14                           [6750, 3]                 (recursive)
├─LayerNorm: 1-15                        [6750, 70]                (recursive)
├─ReLU: 1-16                             [6750, 70]                --
├─Linear: 1-17                           [6750, 3]                 (recursive)
├─LayerNorm: 1-18                        [6750, 70]                (recursive)
├─ReLU: 1-19                             [6750, 70]                --
├─Linear: 1-20                           [6750, 3]                 (recursive)
==========================================================================================
Total params: 56,073
Trainable params: 56,073
Non-trainable params: 0
Total mult-adds (M): 14.30
==========================================================================================
Input size (MB): 3.84
Forward/backward pass size (MB): 23.65
…
