…
::: ##:::: ##:::: ##: ##::. ##: ########:: ########: ##:::: ##:
:::..:::::..:::::..::..::::..::........:::........::..:::::..::

2023-05-01 03:39:06.659 | INFO     | models.temporal_integrators:summarize:571 - [34mofficial PyTorch implementation.[0m
2023-05-01 03:39:06.697 | INFO     | models.temporal_integrators:summarize:593 - Network summary:
==========================================================================================
Layer (type:depth-idx)                   Output Shape              Param #
==========================================================================================
B2BsqrtTANDEM                            [150, 50, 3, 3]           131
├─LSTM: 1-1                              [7500, 1, 31]             19,840
│    └─Tanh: 2-1                         [7500, 31]                --
│    └─Tanh: 2-2                         [7500, 31]                --
│    └─Tanh: 2-3                         [7500, 31]                --
│    └─Sigmoid: 2-4                      [7500, 31]                --
│    └─Sigmoid: 2-5                      [7500, 31]                --
├─Linear: 1-2                            [7500, 3]                 96
==========================================================================================
Total params: 20,067
Trainable params: 20,067
Non-trainable params: 0
Total mult-adds (M): 0.72
==========================================================================================
Input size (MB): 3.84
Forward/backward pass size (MB): 0.18
Params size (MB): 0.00
Estimated Total Size (MB): 4.02
==========================================================================================
…
