…
::: ##:::: ##:::: ##: ##::. ##: ########:: ########: ##:::: ##:
:::..:::::..:::::..::..::::..::........:::........::..:::::..::

2023-05-01 07:21:48.622 | INFO     | models.temporal_integrators:summarize:571 - [34mofficial PyTorch implementation.[0m
2023-05-01 07:21:48.668 | INFO     | models.temporal_integrators:summarize:593 - Network summary:
==========================================================================================
Layer (type:depth-idx)                   Output Shape              Param #
==========================================================================================
B2BsqrtTANDEM                            [150, 50, 3, 3]           643
├─LSTM: 1-1                              [6900, 5, 80]             66,880
│    └─Sigmoid: 2-1                      [6900, 80]                --
│    └─Sigmoid: 2-2                      [6900, 80]                --
│    └─Sigmoid: 2-3                      [6900, 80]                --
│    └─Tanh: 2-4                         [6900, 80]                --
│    └─Tanh: 2-5                         [6900, 80]                --
│    └─Sigmoid: 2-6                      [6900, 80]                --
│    └─Sigmoid: 2-7                      [6900, 80]                --
│    └─Sigmoid: 2-8                      [6900, 80]                --
│    └─Tanh: 2-9                         [6900, 80]                --
│    └─Tanh: 2-10                        [6900, 80]                --
│    └─Sigmoid: 2-11                     [6900, 80]                --
│    └─Sigmoid: 2-12                     [6900, 80]                --
│    └─Sigmoid: 2-13                     [6900, 80]                --
│    └─Tanh: 2-14                        [6900, 80]                --
│    └─Tanh: 2-15                        [6900, 80]                --
│    └─Sigmoid: 2-16                     [6900, 80]                --
│    └─Sigmoid: 2-17                     [6900, 80]                --
│    └─Sigmoid: 2-18                     [6900, 80]                --
│    └─Tanh: 2-19                        [6900, 80]                --
│    └─Tanh: 2-20                        [6900, 80]                --
│    └─Sigmoid: 2-21                     [6900, 80]                --
│    └─Sigmoid: 2-22                     [6900, 80]                --
│    └─Sigmoid: 2-23                     [6900, 80]                --
│    └─Tanh: 2-24                        [6900, 80]                --
│    └─Tanh: 2-25                        [6900, 80]                --
├─GELU: 1-2                              [6900, 80]                --
├─Linear: 1-3                            [6900, 3]                 243
├─GELU: 1-4                              [6900, 80]                --
├─Linear: 1-5                            [6900, 3]                 (recursive)
├─GELU: 1-6                              [6900, 80]                --
├─Linear: 1-7                            [6900, 3]                 (recursive)
├─GELU: 1-8                              [6900, 80]                --
├─Linear: 1-9                            [6900, 3]                 (recursive)
├─GELU: 1-10                             [6900, 80]                --
├─Linear: 1-11                           [6900, 3]                 (recursive)
==========================================================================================
Total params: 67,766
Trainable params: 67,766
Non-trainable params: 0
Total mult-adds (M): 8.38
==========================================================================================
Input size (MB): 3.84
Forward/backward pass size (MB): 0.83
…
