…
::: ##:::: ##:::: ##: ##::. ##: ########:: ########: ##:::: ##:
:::..:::::..:::::..::..::::..::........:::........::..:::::..::

2023-04-30 10:51:16.927 | INFO     | models.temporal_integrators:summarize:571 - [34mofficial PyTorch implementation.[0m
2023-04-30 10:51:17.289 | INFO     | models.temporal_integrators:summarize:593 - Network summary:
==========================================================================================
Layer (type:depth-idx)                   Output Shape              Param #
==========================================================================================
B2BsqrtTANDEM                            [150, 50, 3, 3]           3
├─PositionalEncoding: 1-1                [7200, 3, 128]            --
│    └─Dropout: 2-1                      [3, 7200, 128]            --
├─LSTM: 1-2                              [7200, 3, 21]             12,600
│    └─Sigmoid: 2-2                      [7200, 21]                --
│    └─Sigmoid: 2-3                      [7200, 21]                --
│    └─Sigmoid: 2-4                      [7200, 21]                --
│    └─Sigmoid: 2-5                      [7200, 21]                --
│    └─Sigmoid: 2-6                      [7200, 21]                --
│    └─Sigmoid: 2-7                      [7200, 21]                --
│    └─Sigmoid: 2-8                      [7200, 21]                --
│    └─Sigmoid: 2-9                      [7200, 21]                --
│    └─Sigmoid: 2-10                     [7200, 21]                --
├─LayerNorm: 1-3                         [7200, 21]                42
├─Tanh: 1-4                              [7200, 21]                --
├─Linear: 1-5                            [7200, 3]                 66
├─LayerNorm: 1-6                         [7200, 21]                (recursive)
├─Tanh: 1-7                              [7200, 21]                --
├─Linear: 1-8                            [7200, 3]                 (recursive)
├─LayerNorm: 1-9                         [7200, 21]                (recursive)
├─Tanh: 1-10                             [7200, 21]                --
├─Linear: 1-11                           [7200, 3]                 (recursive)
==========================================================================================
Total params: 12,711
Trainable params: 12,711
Non-trainable params: 0
Total mult-adds (M): 2.33
==========================================================================================
Input size (MB): 3.84
Forward/backward pass size (MB): 4.15
…
