…
::: ##:::: ##:::: ##: ##::. ##: ########:: ########: ##:::: ##:
:::..:::::..:::::..::..::::..::........:::........::..:::::..::

2023-04-30 17:55:10.082 | INFO     | models.temporal_integrators:summarize:571 - [34mofficial PyTorch implementation.[0m
2023-04-30 17:55:10.206 | INFO     | models.temporal_integrators:summarize:593 - Network summary:
==========================================================================================
Layer (type:depth-idx)                   Output Shape              Param #
==========================================================================================
B2BsqrtTANDEM                            [150, 50, 3, 3]           --
├─PositionalEncoding: 1-1                [6750, 6, 128]            --
│    └─Dropout: 2-1                      [6, 6750, 128]            --
├─LSTM: 1-2                              [6750, 6, 125]            127,000
│    └─Tanh: 2-2                         [6750, 125]               --
│    └─Tanh: 2-3                         [6750, 125]               --
│    └─Tanh: 2-4                         [6750, 125]               --
│    └─Tanh: 2-5                         [6750, 125]               --
│    └─Tanh: 2-6                         [6750, 125]               --
│    └─Tanh: 2-7                         [6750, 125]               --
│    └─Tanh: 2-8                         [6750, 125]               --
│    └─Tanh: 2-9                         [6750, 125]               --
│    └─Tanh: 2-10                        [6750, 125]               --
│    └─Tanh: 2-11                        [6750, 125]               --
│    └─Tanh: 2-12                        [6750, 125]               --
│    └─Tanh: 2-13                        [6750, 125]               --
│    └─Tanh: 2-14                        [6750, 125]               --
│    └─Tanh: 2-15                        [6750, 125]               --
│    └─Tanh: 2-16                        [6750, 125]               --
│    └─Tanh: 2-17                        [6750, 125]               --
│    └─Tanh: 2-18                        [6750, 125]               --
│    └─Tanh: 2-19                        [6750, 125]               --
├─ReLU: 1-3                              [6750, 125]               --
├─Linear: 1-4                            [6750, 3]                 378
├─ReLU: 1-5                              [6750, 125]               --
├─Linear: 1-6                            [6750, 3]                 (recursive)
├─ReLU: 1-7                              [6750, 125]               --
├─Linear: 1-8                            [6750, 3]                 (recursive)
├─ReLU: 1-9                              [6750, 125]               --
├─Linear: 1-10                           [6750, 3]                 (recursive)
├─ReLU: 1-11                             [6750, 125]               --
├─Linear: 1-12                           [6750, 3]                 (recursive)
├─ReLU: 1-13                             [6750, 125]               --
├─Linear: 1-14                           [6750, 3]                 (recursive)
==========================================================================================
Total params: 127,378
Trainable params: 127,378
Non-trainable params: 0
Total mult-adds (M): 15.31
==========================================================================================
Input size (MB): 3.84
Forward/backward pass size (MB): 0.97
…
