…
::: ##:::: ##:::: ##: ##::. ##: ########:: ########: ##:::: ##:
:::..:::::..:::::..::..::::..::........:::........::..:::::..::

2023-05-01 00:55:52.928 | INFO     | models.temporal_integrators:summarize:571 - [34mofficial PyTorch implementation.[0m
2023-05-01 00:55:53.140 | INFO     | models.temporal_integrators:summarize:593 - Network summary:
==========================================================================================
Layer (type:depth-idx)                   Output Shape              Param #
==========================================================================================
B2BsqrtTANDEM                            [150, 50, 3, 3]           768
├─LSTM: 1-1                              [6750, 6, 80]             66,880
│    └─Tanh: 2-1                         [6750, 80]                --
│    └─Tanh: 2-2                         [6750, 80]                --
│    └─Tanh: 2-3                         [6750, 80]                --
│    └─Tanh: 2-4                         [6750, 80]                --
│    └─Tanh: 2-5                         [6750, 80]                --
│    └─Tanh: 2-6                         [6750, 80]                --
│    └─Tanh: 2-7                         [6750, 80]                --
│    └─Tanh: 2-8                         [6750, 80]                --
│    └─Tanh: 2-9                         [6750, 80]                --
│    └─Tanh: 2-10                        [6750, 80]                --
│    └─Tanh: 2-11                        [6750, 80]                --
│    └─Tanh: 2-12                        [6750, 80]                --
│    └─Tanh: 2-13                        [6750, 80]                --
│    └─Tanh: 2-14                        [6750, 80]                --
│    └─Tanh: 2-15                        [6750, 80]                --
│    └─Tanh: 2-16                        [6750, 80]                --
│    └─Tanh: 2-17                        [6750, 80]                --
│    └─Tanh: 2-18                        [6750, 80]                --
│    └─Tanh: 2-19                        [6750, 80]                --
│    └─Tanh: 2-20                        [6750, 80]                --
│    └─Tanh: 2-21                        [6750, 80]                --
│    └─Tanh: 2-22                        [6750, 80]                --
│    └─Tanh: 2-23                        [6750, 80]                --
│    └─Tanh: 2-24                        [6750, 80]                --
│    └─Tanh: 2-25                        [6750, 80]                --
│    └─Tanh: 2-26                        [6750, 80]                --
│    └─Tanh: 2-27                        [6750, 80]                --
│    └─Tanh: 2-28                        [6750, 80]                --
│    └─Tanh: 2-29                        [6750, 80]                --
│    └─Tanh: 2-30                        [6750, 80]                --
├─ReLU: 1-2                              [6750, 80]                --
├─Linear: 1-3                            [6750, 3]                 243
├─ReLU: 1-4                              [6750, 80]                --
├─Linear: 1-5                            [6750, 3]                 (recursive)
├─ReLU: 1-6                              [6750, 80]                --
├─Linear: 1-7                            [6750, 3]                 (recursive)
├─ReLU: 1-8                              [6750, 80]                --
├─Linear: 1-9                            [6750, 3]                 (recursive)
├─ReLU: 1-10                             [6750, 80]                --
├─Linear: 1-11                           [6750, 3]                 (recursive)
├─ReLU: 1-12                             [6750, 80]                --
├─Linear: 1-13                           [6750, 3]                 (recursive)
==========================================================================================
Total params: 67,891
Trainable params: 67,891
Non-trainable params: 0
Total mult-adds (M): 9.84
==========================================================================================
Input size (MB): 3.84
Forward/backward pass size (MB): 0.97
…
