…
::: ##:::: ##:::: ##: ##::. ##: ########:: ########: ##:::: ##:
:::..:::::..:::::..::..::::..::........:::........::..:::::..::

2023-04-30 11:32:02.971 | INFO     | models.temporal_integrators:summarize:571 - [34mofficial PyTorch implementation.[0m
2023-04-30 11:32:03.335 | INFO     | models.temporal_integrators:summarize:593 - Network summary:
==========================================================================================
Layer (type:depth-idx)                   Output Shape              Param #
==========================================================================================
B2BsqrtTANDEM                            [150, 50, 3, 3]           128
├─LSTM: 1-1                              [7500, 1, 20]             11,920
│    └─Sigmoid: 2-1                      [7500, 20]                --
│    └─Sigmoid: 2-2                      [7500, 20]                --
│    └─Sigmoid: 2-3                      [7500, 20]                --
│    └─Sigmoid: 2-4                      [7500, 20]                --
│    └─Sigmoid: 2-5                      [7500, 20]                --
├─GELU: 1-2                              [7500, 20]                --
├─Linear: 1-3                            [7500, 3]                 63
==========================================================================================
Total params: 12,111
Trainable params: 12,111
Non-trainable params: 0
Total mult-adds (M): 0.47
==========================================================================================
Input size (MB): 3.84
Forward/backward pass size (MB): 0.18
Params size (MB): 0.00
Estimated Total Size (MB): 4.02
==========================================================================================
…
