…
::: ##:::: ##:::: ##: ##::. ##: ########:: ########: ##:::: ##:
:::..:::::..:::::..::..::::..::........:::........::..:::::..::

2023-04-30 20:25:13.415 | INFO     | models.temporal_integrators:summarize:571 - [34mofficial PyTorch implementation.[0m
2023-04-30 20:25:13.629 | INFO     | models.temporal_integrators:summarize:593 - Network summary:
==========================================================================================
Layer (type:depth-idx)                   Output Shape              Param #
==========================================================================================
B2BsqrtTANDEM                            [150, 50, 3, 3]           512
├─LSTM: 1-1                              [7050, 4, 16]             9,280
│    └─Sigmoid: 2-1                      [7050, 16]                --
│    └─Sigmoid: 2-2                      [7050, 16]                --
│    └─Sigmoid: 2-3                      [7050, 16]                --
│    └─Sigmoid: 2-4                      [7050, 16]                --
│    └─Sigmoid: 2-5                      [7050, 16]                --
│    └─Sigmoid: 2-6                      [7050, 16]                --
│    └─Sigmoid: 2-7                      [7050, 16]                --
│    └─Sigmoid: 2-8                      [7050, 16]                --
│    └─Sigmoid: 2-9                      [7050, 16]                --
│    └─Sigmoid: 2-10                     [7050, 16]                --
│    └─Sigmoid: 2-11                     [7050, 16]                --
│    └─Sigmoid: 2-12                     [7050, 16]                --
│    └─Sigmoid: 2-13                     [7050, 16]                --
│    └─Sigmoid: 2-14                     [7050, 16]                --
│    └─Sigmoid: 2-15                     [7050, 16]                --
│    └─Sigmoid: 2-16                     [7050, 16]                --
│    └─Sigmoid: 2-17                     [7050, 16]                --
│    └─Sigmoid: 2-18                     [7050, 16]                --
│    └─Sigmoid: 2-19                     [7050, 16]                --
│    └─Sigmoid: 2-20                     [7050, 16]                --
├─Linear: 1-2                            [7050, 3]                 51
├─Linear: 1-3                            [7050, 3]                 (recursive)
├─Linear: 1-4                            [7050, 3]                 (recursive)
├─Linear: 1-5                            [7050, 3]                 (recursive)
==========================================================================================
Total params: 9,843
Trainable params: 9,843
Non-trainable params: 0
Total mult-adds (M): 1.44
…
