…
::: ##:::: ##:::: ##: ##::. ##: ########:: ########: ##:::: ##:
:::..:::::..:::::..::..::::..::........:::........::..:::::..::

2023-04-30 10:06:41.820 | INFO     | models.temporal_integrators:summarize:571 - [34mofficial PyTorch implementation.[0m
2023-04-30 10:06:41.900 | INFO     | models.temporal_integrators:summarize:593 - Network summary:
==========================================================================================
Layer (type:depth-idx)                   Output Shape              Param #
==========================================================================================
B2BsqrtTANDEM                            [150, 50, 3, 3]           771
├─LSTM: 1-1                              [6750, 6, 18]             10,584
│    └─Tanh: 2-1                         [6750, 18]                --
│    └─Tanh: 2-2                         [6750, 18]                --
│    └─Tanh: 2-3                         [6750, 18]                --
│    └─Tanh: 2-4                         [6750, 18]                --
│    └─Tanh: 2-5                         [6750, 18]                --
│    └─Tanh: 2-6                         [6750, 18]                --
│    └─Tanh: 2-7                         [6750, 18]                --
│    └─Tanh: 2-8                         [6750, 18]                --
│    └─Tanh: 2-9                         [6750, 18]                --
│    └─Tanh: 2-10                        [6750, 18]                --
│    └─Tanh: 2-11                        [6750, 18]                --
│    └─Tanh: 2-12                        [6750, 18]                --
│    └─Tanh: 2-13                        [6750, 18]                --
│    └─Tanh: 2-14                        [6750, 18]                --
│    └─Tanh: 2-15                        [6750, 18]                --
│    └─Tanh: 2-16                        [6750, 18]                --
│    └─Tanh: 2-17                        [6750, 18]                --
│    └─Tanh: 2-18                        [6750, 18]                --
├─Linear: 1-2                            [6750, 3]                 57
├─Linear: 1-3                            [6750, 3]                 (recursive)
├─Linear: 1-4                            [6750, 3]                 (recursive)
├─Linear: 1-5                            [6750, 3]                 (recursive)
├─Linear: 1-6                            [6750, 3]                 (recursive)
├─Linear: 1-7                            [6750, 3]                 (recursive)
==========================================================================================
…
