…
::: ##:::: ##:::: ##: ##::. ##: ########:: ########: ##:::: ##:
:::..:::::..:::::..::..::::..::........:::........::..:::::..::

2023-04-30 10:02:23.664 | INFO     | models.temporal_integrators:summarize:571 - [34mofficial PyTorch implementation.[0m
2023-04-30 10:02:25.654 | INFO     | models.temporal_integrators:summarize:593 - Network summary:
==========================================================================================
Layer (type:depth-idx)                   Output Shape              Param #
==========================================================================================
B2BsqrtTANDEM                            [150, 50, 3, 3]           512
├─LSTM: 1-1                              [7050, 4, 119]            118,048
│    └─Sigmoid: 2-1                      [7050, 119]               --
│    └─Sigmoid: 2-2                      [7050, 119]               --
│    └─Sigmoid: 2-3                      [7050, 119]               --
│    └─Sigmoid: 2-4                      [7050, 119]               --
│    └─Sigmoid: 2-5                      [7050, 119]               --
│    └─Sigmoid: 2-6                      [7050, 119]               --
│    └─Sigmoid: 2-7                      [7050, 119]               --
│    └─Sigmoid: 2-8                      [7050, 119]               --
│    └─Sigmoid: 2-9                      [7050, 119]               --
│    └─Sigmoid: 2-10                     [7050, 119]               --
│    └─Sigmoid: 2-11                     [7050, 119]               --
│    └─Sigmoid: 2-12                     [7050, 119]               --
├─Linear: 1-2                            [7050, 3]                 360
├─Linear: 1-3                            [7050, 3]                 (recursive)
├─Linear: 1-4                            [7050, 3]                 (recursive)
├─Linear: 1-5                            [7050, 3]                 (recursive)
==========================================================================================
Total params: 118,920
Trainable params: 118,920
Non-trainable params: 0
…
