…
:::..:::::..:::::..::..::::..::........:::........::..:::::..::

2023-04-30 16:09:31.968 | INFO     | models.temporal_integrators:summarize:571 - [34mofficial PyTorch implementation.[0m
2023-04-30 16:09:32.094 | INFO     | models.temporal_integrators:summarize:593 - Network summary:
====================================================================================================
Layer (type:depth-idx)                             Output Shape              Param #
====================================================================================================
TANDEMformer                                       [150, 50, 3, 3]           771
├─TransformerEncoder: 1-1                          [6750, 1, 128]            --
│    └─ModuleList: 2-6                             --                        (recursive)
│    │    └─TransformerEncoderLayer: 3-1           [6750, 1, 128]            83,136
│    │    └─TransformerEncoderLayer: 3-2           [6750, 1, 128]            83,136
├─Linear: 1-2                                      [6750, 64]                8,256
├─Dropout: 1-3                                     [6750, 64]                --
├─TransformerEncoder: 1-4                          [6750, 2, 128]            (recursive)
│    └─ModuleList: 2-6                             --                        (recursive)
│    │    └─TransformerEncoderLayer: 3-3           [6750, 2, 128]            (recursive)
│    │    └─TransformerEncoderLayer: 3-4           [6750, 2, 128]            (recursive)
├─Linear: 1-5                                      [6750, 64]                (recursive)
├─Dropout: 1-6                                     [6750, 64]                --
├─TransformerEncoder: 1-7                          [6750, 3, 128]            (recursive)
│    └─ModuleList: 2-6                             --                        (recursive)
│    │    └─TransformerEncoderLayer: 3-5           [6750, 3, 128]            (recursive)
│    │    └─TransformerEncoderLayer: 3-6           [6750, 3, 128]            (recursive)
├─Linear: 1-8                                      [6750, 64]                (recursive)
├─Dropout: 1-9                                     [6750, 64]                --
├─TransformerEncoder: 1-10                         [6750, 4, 128]            (recursive)
│    └─ModuleList: 2-6                             --                        (recursive)
│    │    └─TransformerEncoderLayer: 3-7           [6750, 4, 128]            (recursive)
│    │    └─TransformerEncoderLayer: 3-8           [6750, 4, 128]            (recursive)
├─Linear: 1-11                                     [6750, 64]                (recursive)
├─Dropout: 1-12                                    [6750, 64]                --
├─TransformerEncoder: 1-13                         [6750, 5, 128]            (recursive)
│    └─ModuleList: 2-6                             --                        (recursive)
│    │    └─TransformerEncoderLayer: 3-9           [6750, 5, 128]            (recursive)
│    │    └─TransformerEncoderLayer: 3-10          [6750, 5, 128]            (recursive)
├─Linear: 1-14                                     [6750, 64]                (recursive)
├─Dropout: 1-15                                    [6750, 64]                --
├─TransformerEncoder: 1-16                         [6750, 6, 128]            (recursive)
│    └─ModuleList: 2-6                             --                        (recursive)
│    │    └─TransformerEncoderLayer: 3-11          [6750, 6, 128]            (recursive)
│    │    └─TransformerEncoderLayer: 3-12          [6750, 6, 128]            (recursive)
├─Linear: 1-17                                     [6750, 64]                (recursive)
├─Dropout: 1-18                                    [6750, 64]                --
├─Tanh: 1-19                                       [6750, 64]                --
├─Linear: 1-20                                     [6750, 3]                 195
├─Tanh: 1-21                                       [6750, 64]                --
├─Linear: 1-22                                     [6750, 3]                 (recursive)
├─Tanh: 1-23                                       [6750, 64]                --
├─Linear: 1-24                                     [6750, 3]                 (recursive)
├─Tanh: 1-25                                       [6750, 64]                --
├─Linear: 1-26                                     [6750, 3]                 (recursive)
├─Tanh: 1-27                                       [6750, 64]                --
├─Linear: 1-28                                     [6750, 3]                 (recursive)
├─Tanh: 1-29                                       [6750, 64]                --
├─Linear: 1-30                                     [6750, 3]                 (recursive)
====================================================================================================
Total params: 175,494
Trainable params: 175,494
Non-trainable params: 0
Total mult-adds (G): 1.73
====================================================================================================
Input size (MB): 3.84
…
