…
:::..:::::..:::::..::..::::..::........:::........::..:::::..::

2023-05-01 06:17:38.265 | INFO     | models.temporal_integrators:summarize:571 - [34mofficial PyTorch implementation.[0m
2023-05-01 06:17:38.531 | INFO     | models.temporal_integrators:summarize:593 - Network summary:
===============================================================================================
Layer (type:depth-idx)                        Output Shape              Param #
===============================================================================================
TANDEMformer                                  [150, 50, 3, 3]           259
├─TransformerEncoder: 1-1                     [7350, 1, 128]            --
│    └─ModuleList: 2-2                        --                        (recursive)
│    │    └─TransformerEncoderLayer: 3-1      [7350, 1, 128]            83,136
│    │    └─TransformerEncoderLayer: 3-2      [7350, 1, 128]            83,136
├─Linear: 1-2                                 [7350, 64]                8,256
├─Dropout: 1-3                                [7350, 64]                --
├─TransformerEncoder: 1-4                     [7350, 2, 128]            (recursive)
│    └─ModuleList: 2-2                        --                        (recursive)
│    │    └─TransformerEncoderLayer: 3-3      [7350, 2, 128]            (recursive)
│    │    └─TransformerEncoderLayer: 3-4      [7350, 2, 128]            (recursive)
├─Linear: 1-5                                 [7350, 64]                (recursive)
├─Dropout: 1-6                                [7350, 64]                --
├─Linear: 1-7                                 [7350, 3]                 195
├─Linear: 1-8                                 [7350, 3]                 (recursive)
===============================================================================================
Total params: 174,982
Trainable params: 174,982
Non-trainable params: 0
Total mult-adds (M): 626.62
===============================================================================================
Input size (MB): 3.84
Forward/backward pass size (MB): 165.93
…
