…
:::..:::::..:::::..::..::::..::........:::........::..:::::..::

2023-04-30 18:15:19.365 | INFO     | models.temporal_integrators:summarize:571 - [34mofficial PyTorch implementation.[0m
2023-04-30 18:15:19.482 | INFO     | models.temporal_integrators:summarize:593 - Network summary:
===============================================================================================
Layer (type:depth-idx)                        Output Shape              Param #
===============================================================================================
TANDEMformer                                  [150, 50, 3, 3]           3
├─PositionalEncoding: 1-1                     [6900, 1, 128]            --
│    └─Dropout: 2-1                           [1, 6900, 128]            --
├─TransformerEncoder: 1-2                     [6900, 1, 128]            --
│    └─ModuleList: 2-10                       --                        (recursive)
│    │    └─TransformerEncoderLayer: 3-1      [6900, 1, 128]            83,136
│    │    └─TransformerEncoderLayer: 3-2      [6900, 1, 128]            83,136
├─Linear: 1-3                                 [6900, 64]                8,256
├─Dropout: 1-4                                [6900, 64]                --
├─PositionalEncoding: 1-5                     [6900, 2, 128]            --
│    └─Dropout: 2-3                           [2, 6900, 128]            --
├─TransformerEncoder: 1-6                     [6900, 2, 128]            (recursive)
│    └─ModuleList: 2-10                       --                        (recursive)
│    │    └─TransformerEncoderLayer: 3-3      [6900, 2, 128]            (recursive)
│    │    └─TransformerEncoderLayer: 3-4      [6900, 2, 128]            (recursive)
├─Linear: 1-7                                 [6900, 64]                (recursive)
├─Dropout: 1-8                                [6900, 64]                --
├─PositionalEncoding: 1-9                     [6900, 3, 128]            --
│    └─Dropout: 2-5                           [3, 6900, 128]            --
├─TransformerEncoder: 1-10                    [6900, 3, 128]            (recursive)
│    └─ModuleList: 2-10                       --                        (recursive)
│    │    └─TransformerEncoderLayer: 3-5      [6900, 3, 128]            (recursive)
│    │    └─TransformerEncoderLayer: 3-6      [6900, 3, 128]            (recursive)
├─Linear: 1-11                                [6900, 64]                (recursive)
├─Dropout: 1-12                               [6900, 64]                --
├─PositionalEncoding: 1-13                    [6900, 4, 128]            --
│    └─Dropout: 2-7                           [4, 6900, 128]            --
├─TransformerEncoder: 1-14                    [6900, 4, 128]            (recursive)
│    └─ModuleList: 2-10                       --                        (recursive)
│    │    └─TransformerEncoderLayer: 3-7      [6900, 4, 128]            (recursive)
│    │    └─TransformerEncoderLayer: 3-8      [6900, 4, 128]            (recursive)
├─Linear: 1-15                                [6900, 64]                (recursive)
├─Dropout: 1-16                               [6900, 64]                --
├─PositionalEncoding: 1-17                    [6900, 5, 128]            --
│    └─Dropout: 2-9                           [5, 6900, 128]            --
├─TransformerEncoder: 1-18                    [6900, 5, 128]            (recursive)
│    └─ModuleList: 2-10                       --                        (recursive)
│    │    └─TransformerEncoderLayer: 3-9      [6900, 5, 128]            (recursive)
│    │    └─TransformerEncoderLayer: 3-10     [6900, 5, 128]            (recursive)
├─Linear: 1-19                                [6900, 64]                (recursive)
├─Dropout: 1-20                               [6900, 64]                --
├─LayerNorm: 1-21                             [6900, 64]                128
├─Tanh: 1-22                                  [6900, 64]                --
├─Linear: 1-23                                [6900, 3]                 195
├─LayerNorm: 1-24                             [6900, 64]                (recursive)
├─Tanh: 1-25                                  [6900, 64]                --
├─Linear: 1-26                                [6900, 3]                 (recursive)
├─LayerNorm: 1-27                             [6900, 64]                (recursive)
├─Tanh: 1-28                                  [6900, 64]                --
├─Linear: 1-29                                [6900, 3]                 (recursive)
├─LayerNorm: 1-30                             [6900, 64]                (recursive)
├─Tanh: 1-31                                  [6900, 64]                --
├─Linear: 1-32                                [6900, 3]                 (recursive)
├─LayerNorm: 1-33                             [6900, 64]                (recursive)
├─Tanh: 1-34                                  [6900, 64]                --
├─Linear: 1-35                                [6900, 3]                 (recursive)
===============================================================================================
Total params: 174,854
Trainable params: 174,854
Non-trainable params: 0
Total mult-adds (G): 1.48
===============================================================================================
Input size (MB): 3.84
Forward/backward pass size (MB): 778.04
…
