…
:::..:::::..:::::..::..::::..::........:::........::..:::::..::

2023-04-30 22:50:44.589 | INFO     | models.temporal_integrators:summarize:571 - [34mofficial PyTorch implementation.[0m
2023-04-30 22:50:44.816 | INFO     | models.temporal_integrators:summarize:593 - Network summary:
===============================================================================================
Layer (type:depth-idx)                        Output Shape              Param #
===============================================================================================
TANDEMformer                                  [150, 50, 3, 3]           --
├─PositionalEncoding: 1-1                     [6750, 1, 128]            --
│    └─Dropout: 2-1                           [1, 6750, 128]            --
├─TransformerEncoder: 1-2                     [6750, 1, 128]            --
│    └─ModuleList: 2-12                       --                        (recursive)
│    │    └─TransformerEncoderLayer: 3-1      [6750, 1, 128]            83,136
├─Linear: 1-3                                 [6750, 32]                4,128
├─Dropout: 1-4                                [6750, 32]                --
├─PositionalEncoding: 1-5                     [6750, 2, 128]            --
│    └─Dropout: 2-3                           [2, 6750, 128]            --
├─TransformerEncoder: 1-6                     [6750, 2, 128]            (recursive)
│    └─ModuleList: 2-12                       --                        (recursive)
│    │    └─TransformerEncoderLayer: 3-2      [6750, 2, 128]            (recursive)
├─Linear: 1-7                                 [6750, 32]                (recursive)
├─Dropout: 1-8                                [6750, 32]                --
├─PositionalEncoding: 1-9                     [6750, 3, 128]            --
│    └─Dropout: 2-5                           [3, 6750, 128]            --
├─TransformerEncoder: 1-10                    [6750, 3, 128]            (recursive)
│    └─ModuleList: 2-12                       --                        (recursive)
│    │    └─TransformerEncoderLayer: 3-3      [6750, 3, 128]            (recursive)
├─Linear: 1-11                                [6750, 32]                (recursive)
├─Dropout: 1-12                               [6750, 32]                --
├─PositionalEncoding: 1-13                    [6750, 4, 128]            --
│    └─Dropout: 2-7                           [4, 6750, 128]            --
├─TransformerEncoder: 1-14                    [6750, 4, 128]            (recursive)
│    └─ModuleList: 2-12                       --                        (recursive)
│    │    └─TransformerEncoderLayer: 3-4      [6750, 4, 128]            (recursive)
├─Linear: 1-15                                [6750, 32]                (recursive)
├─Dropout: 1-16                               [6750, 32]                --
├─PositionalEncoding: 1-17                    [6750, 5, 128]            --
│    └─Dropout: 2-9                           [5, 6750, 128]            --
├─TransformerEncoder: 1-18                    [6750, 5, 128]            (recursive)
│    └─ModuleList: 2-12                       --                        (recursive)
│    │    └─TransformerEncoderLayer: 3-5      [6750, 5, 128]            (recursive)
├─Linear: 1-19                                [6750, 32]                (recursive)
├─Dropout: 1-20                               [6750, 32]                --
├─PositionalEncoding: 1-21                    [6750, 6, 128]            --
│    └─Dropout: 2-11                          [6, 6750, 128]            --
├─TransformerEncoder: 1-22                    [6750, 6, 128]            (recursive)
│    └─ModuleList: 2-12                       --                        (recursive)
│    │    └─TransformerEncoderLayer: 3-6      [6750, 6, 128]            (recursive)
├─Linear: 1-23                                [6750, 32]                (recursive)
├─Dropout: 1-24                               [6750, 32]                --
├─Linear: 1-25                                [6750, 3]                 99
├─Linear: 1-26                                [6750, 3]                 (recursive)
├─Linear: 1-27                                [6750, 3]                 (recursive)
├─Linear: 1-28                                [6750, 3]                 (recursive)
├─Linear: 1-29                                [6750, 3]                 (recursive)
├─Linear: 1-30                                [6750, 3]                 (recursive)
…
