…
:::..:::::..:::::..::..::::..::........:::........::..:::::..::

2023-04-30 11:47:19.473 | INFO     | models.temporal_integrators:summarize:571 - [34mofficial PyTorch implementation.[0m
2023-04-30 11:47:19.709 | INFO     | models.temporal_integrators:summarize:593 - Network summary:
===============================================================================================
Layer (type:depth-idx)                        Output Shape              Param #
===============================================================================================
TANDEMformer                                  [150, 50, 3, 3]           131
├─TransformerEncoder: 1-1                     [7500, 1, 128]            --
│    └─ModuleList: 2-1                        --                        --
│    │    └─TransformerEncoderLayer: 3-1      [7500, 1, 128]            74,912
│    │    └─TransformerEncoderLayer: 3-2      [7500, 1, 128]            74,912
├─Linear: 1-2                                 [7500, 64]                8,256
├─Dropout: 1-3                                [7500, 64]                --
├─Linear: 1-4                                 [7500, 3]                 195
===============================================================================================
Total params: 158,406
Trainable params: 158,406
Non-trainable params: 0
Total mult-adds (M): 196.34
===============================================================================================
Input size (MB): 3.84
Forward/backward pass size (MB): 53.94
Params size (MB): 0.10
Estimated Total Size (MB): 57.88
…
