…
:::..:::::..:::::..::..::::..::........:::........::..:::::..::

2023-04-30 20:12:51.998 | INFO     | models.temporal_integrators:summarize:571 - [34mofficial PyTorch implementation.[0m
2023-04-30 20:12:52.241 | INFO     | models.temporal_integrators:summarize:593 - Network summary:
===============================================================================================
Layer (type:depth-idx)                        Output Shape              Param #
===============================================================================================
TANDEMformer                                  [150, 50, 3, 3]           643
├─TransformerEncoder: 1-1                     [6900, 1, 128]            --
│    └─ModuleList: 2-5                        --                        (recursive)
│    │    └─TransformerEncoderLayer: 3-1      [6900, 1, 128]            74,912
├─Linear: 1-2                                 [6900, 32]                4,128
├─Dropout: 1-3                                [6900, 32]                --
├─TransformerEncoder: 1-4                     [6900, 2, 128]            (recursive)
│    └─ModuleList: 2-5                        --                        (recursive)
│    │    └─TransformerEncoderLayer: 3-2      [6900, 2, 128]            (recursive)
├─Linear: 1-5                                 [6900, 32]                (recursive)
├─Dropout: 1-6                                [6900, 32]                --
├─TransformerEncoder: 1-7                     [6900, 3, 128]            (recursive)
│    └─ModuleList: 2-5                        --                        (recursive)
│    │    └─TransformerEncoderLayer: 3-3      [6900, 3, 128]            (recursive)
├─Linear: 1-8                                 [6900, 32]                (recursive)
├─Dropout: 1-9                                [6900, 32]                --
├─TransformerEncoder: 1-10                    [6900, 4, 128]            (recursive)
│    └─ModuleList: 2-5                        --                        (recursive)
│    │    └─TransformerEncoderLayer: 3-4      [6900, 4, 128]            (recursive)
├─Linear: 1-11                                [6900, 32]                (recursive)
├─Dropout: 1-12                               [6900, 32]                --
├─TransformerEncoder: 1-13                    [6900, 5, 128]            (recursive)
│    └─ModuleList: 2-5                        --                        (recursive)
│    │    └─TransformerEncoderLayer: 3-5      [6900, 5, 128]            (recursive)
├─Linear: 1-14                                [6900, 32]                (recursive)
├─Dropout: 1-15                               [6900, 32]                --
├─LayerNorm: 1-16                             [6900, 32]                64
├─GELU: 1-17                                  [6900, 32]                --
├─Linear: 1-18                                [6900, 3]                 99
├─LayerNorm: 1-19                             [6900, 32]                (recursive)
├─GELU: 1-20                                  [6900, 32]                --
├─Linear: 1-21                                [6900, 3]                 (recursive)
├─LayerNorm: 1-22                             [6900, 32]                (recursive)
├─GELU: 1-23                                  [6900, 32]                --
├─Linear: 1-24                                [6900, 3]                 (recursive)
├─LayerNorm: 1-25                             [6900, 32]                (recursive)
├─GELU: 1-26                                  [6900, 32]                --
├─Linear: 1-27                                [6900, 3]                 (recursive)
├─LayerNorm: 1-28                             [6900, 32]                (recursive)
├─GELU: 1-29                                  [6900, 32]                --
├─Linear: 1-30                                [6900, 3]                 (recursive)
===============================================================================================
Total params: 79,846
Trainable params: 79,846
Non-trainable params: 0
Total mult-adds (M): 148.04
===============================================================================================
Input size (MB): 3.84
Forward/backward pass size (MB): 18.49
…
