…
::: ##:::: ##:::: ##: ##::. ##: ########:: ########: ##:::: ##:
:::..:::::..:::::..::..::::..::........:::........::..:::::..::

2023-05-16 04:27:46.743 | INFO     | models.temporal_integrators:summarize:569 - [34mofficial PyTorch implementation.[0m
2023-05-16 04:27:48.169 | INFO     | models.temporal_integrators:summarize:591 - Network summary:
==========================================================================================
Layer (type:depth-idx)                   Output Shape              Param #
==========================================================================================
B2BsqrtTANDEM                            [150, 50, 3, 3]           768
├─LSTM: 1-1                              [6750, 6, 64]             49,408
│    └─Sigmoid: 2-1                      [6750, 64]                --
│    └─Sigmoid: 2-2                      [6750, 64]                --
│    └─Sigmoid: 2-3                      [6750, 64]                --
│    └─Sigmoid: 2-4                      [6750, 64]                --
│    └─Sigmoid: 2-5                      [6750, 64]                --
│    └─Sigmoid: 2-6                      [6750, 64]                --
│    └─Sigmoid: 2-7                      [6750, 64]                --
│    └─Sigmoid: 2-8                      [6750, 64]                --
│    └─Sigmoid: 2-9                      [6750, 64]                --
│    └─Sigmoid: 2-10                     [6750, 64]                --
│    └─Sigmoid: 2-11                     [6750, 64]                --
│    └─Sigmoid: 2-12                     [6750, 64]                --
│    └─Sigmoid: 2-13                     [6750, 64]                --
│    └─Sigmoid: 2-14                     [6750, 64]                --
│    └─Sigmoid: 2-15                     [6750, 64]                --
│    └─Sigmoid: 2-16                     [6750, 64]                --
│    └─Sigmoid: 2-17                     [6750, 64]                --
│    └─Sigmoid: 2-18                     [6750, 64]                --
├─ReLU: 1-2                              [6750, 64]                --
├─Linear: 1-3                            [6750, 3]                 195
├─ReLU: 1-4                              [6750, 64]                --
├─Linear: 1-5                            [6750, 3]                 (recursive)
├─ReLU: 1-6                              [6750, 64]                --
├─Linear: 1-7                            [6750, 3]                 (recursive)
├─ReLU: 1-8                              [6750, 64]                --
├─Linear: 1-9                            [6750, 3]                 (recursive)
├─ReLU: 1-10                             [6750, 64]                --
├─Linear: 1-11                           [6750, 3]                 (recursive)
├─ReLU: 1-12                             [6750, 64]                --
├─Linear: 1-13                           [6750, 3]                 (recursive)
==========================================================================================
Total params: 50,371
Trainable params: 50,371
Non-trainable params: 0
Total mult-adds (M): 7.90
==========================================================================================
Input size (MB): 3.84
Forward/backward pass size (MB): 0.97
…
