…
::: ##:::: ##:::: ##: ##::. ##: ########:: ########: ##:::: ##:
:::..:::::..:::::..::..::::..::........:::........::..:::::..::

2023-05-15 04:56:04.365 | INFO     | models.temporal_integrators:summarize:569 - [34mofficial PyTorch implementation.[0m
2023-05-15 04:56:04.415 | INFO     | models.temporal_integrators:summarize:591 - Network summary:
==========================================================================================
Layer (type:depth-idx)                   Output Shape              Param #
==========================================================================================
B2BsqrtTANDEM                            [150, 50, 3, 3]           259
├─LSTM: 1-1                              [7350, 2, 51]             36,720
│    └─Tanh: 2-1                         [7350, 51]                --
│    └─Tanh: 2-2                         [7350, 51]                --
│    └─Tanh: 2-3                         [7350, 51]                --
│    └─Tanh: 2-4                         [7350, 51]                --
│    └─Tanh: 2-5                         [7350, 51]                --
│    └─Tanh: 2-6                         [7350, 51]                --
├─ReLU: 1-2                              [7350, 51]                --
├─Linear: 1-3                            [7350, 3]                 156
├─ReLU: 1-4                              [7350, 51]                --
├─Linear: 1-5                            [7350, 3]                 (recursive)
==========================================================================================
Total params: 37,135
Trainable params: 37,135
Non-trainable params: 0
Total mult-adds (M): 2.29
==========================================================================================
Input size (MB): 3.84
Forward/backward pass size (MB): 0.35
…
