…
::: ##:::: ##:::: ##: ##::. ##: ########:: ########: ##:::: ##:
:::..:::::..:::::..::..::::..::........:::........::..:::::..::

2023-05-01 20:46:01.507 | INFO     | models.temporal_integrators:summarize:571 - [34mofficial PyTorch implementation.[0m
2023-05-01 20:46:03.227 | INFO     | models.temporal_integrators:summarize:593 - Network summary:
==========================================================================================
Layer (type:depth-idx)                   Output Shape              Param #
==========================================================================================
B2BsqrtTANDEM                            [150, 50, 3, 3]           643
├─LSTM: 1-1                              [6900, 5, 123]            123,984
│    └─Tanh: 2-1                         [6900, 123]               --
│    └─Tanh: 2-2                         [6900, 123]               --
│    └─Tanh: 2-3                         [6900, 123]               --
│    └─Tanh: 2-4                         [6900, 123]               --
│    └─Tanh: 2-5                         [6900, 123]               --
│    └─Tanh: 2-6                         [6900, 123]               --
│    └─Tanh: 2-7                         [6900, 123]               --
│    └─Tanh: 2-8                         [6900, 123]               --
│    └─Tanh: 2-9                         [6900, 123]               --
│    └─Tanh: 2-10                        [6900, 123]               --
│    └─Tanh: 2-11                        [6900, 123]               --
│    └─Tanh: 2-12                        [6900, 123]               --
│    └─Tanh: 2-13                        [6900, 123]               --
│    └─Tanh: 2-14                        [6900, 123]               --
│    └─Tanh: 2-15                        [6900, 123]               --
├─GELU: 1-2                              [6900, 123]               --
├─Linear: 1-3                            [6900, 3]                 372
├─GELU: 1-4                              [6900, 123]               --
├─Linear: 1-5                            [6900, 3]                 (recursive)
├─GELU: 1-6                              [6900, 123]               --
├─Linear: 1-7                            [6900, 3]                 (recursive)
├─GELU: 1-8                              [6900, 123]               --
├─Linear: 1-9                            [6900, 3]                 (recursive)
├─GELU: 1-10                             [6900, 123]               --
├─Linear: 1-11                           [6900, 3]                 (recursive)
==========================================================================================
Total params: 124,999
Trainable params: 124,999
Non-trainable params: 0
Total mult-adds (M): 12.83
==========================================================================================
Input size (MB): 3.84
Forward/backward pass size (MB): 0.83
…
