…
::: ##:::: ##:::: ##: ##::. ##: ########:: ########: ##:::: ##:
:::..:::::..:::::..::..::::..::........:::........::..:::::..::

2023-05-01 22:27:40.721 | INFO     | models.temporal_integrators:summarize:571 - [34mofficial PyTorch implementation.[0m
2023-05-01 22:27:41.155 | INFO     | models.temporal_integrators:summarize:593 - Network summary:
==========================================================================================
Layer (type:depth-idx)                   Output Shape              Param #
==========================================================================================
B2BsqrtTANDEM                            [150, 50, 3, 3]           128
├─LSTM: 1-1                              [7500, 1, 115]            112,240
│    └─Tanh: 2-1                         [7500, 115]               --
│    └─Tanh: 2-2                         [7500, 115]               --
│    └─Tanh: 2-3                         [7500, 115]               --
│    └─Sigmoid: 2-4                      [7500, 115]               --
│    └─Sigmoid: 2-5                      [7500, 115]               --
├─ReLU: 1-2                              [7500, 115]               --
├─Linear: 1-3                            [7500, 3]                 348
==========================================================================================
Total params: 112,716
Trainable params: 112,716
Non-trainable params: 0
Total mult-adds (M): 2.61
==========================================================================================
Input size (MB): 3.84
Forward/backward pass size (MB): 0.18
Params size (MB): 0.00
Estimated Total Size (MB): 4.02
==========================================================================================
…
