…
::: ##:::: ##:::: ##: ##::. ##: ########:: ########: ##:::: ##:
:::..:::::..:::::..::..::::..::........:::........::..:::::..::

2023-05-02 06:25:07.316 | INFO     | models.temporal_integrators:summarize:571 - [34mofficial PyTorch implementation.[0m
2023-05-02 06:25:08.301 | INFO     | models.temporal_integrators:summarize:593 - Network summary:
==========================================================================================
Layer (type:depth-idx)                   Output Shape              Param #
==========================================================================================
B2BsqrtTANDEM                            [150, 50, 3, 3]           --
├─PositionalEncoding: 1-1                [7200, 3, 128]            --
│    └─Dropout: 2-1                      [3, 7200, 128]            --
├─LSTM: 1-2                              [7200, 3, 39]             26,208
│    └─Sigmoid: 2-2                      [7200, 39]                --
│    └─Sigmoid: 2-3                      [7200, 39]                --
│    └─Sigmoid: 2-4                      [7200, 39]                --
│    └─Sigmoid: 2-5                      [7200, 39]                --
│    └─Sigmoid: 2-6                      [7200, 39]                --
│    └─Sigmoid: 2-7                      [7200, 39]                --
│    └─Sigmoid: 2-8                      [7200, 39]                --
│    └─Sigmoid: 2-9                      [7200, 39]                --
│    └─Sigmoid: 2-10                     [7200, 39]                --
├─LayerNorm: 1-3                         [7200, 39]                78
├─GELU: 1-4                              [7200, 39]                --
├─Linear: 1-5                            [7200, 3]                 120
├─LayerNorm: 1-6                         [7200, 39]                (recursive)
├─GELU: 1-7                              [7200, 39]                --
├─Linear: 1-8                            [7200, 3]                 (recursive)
├─LayerNorm: 1-9                         [7200, 39]                (recursive)
├─GELU: 1-10                             [7200, 39]                --
├─Linear: 1-11                           [7200, 3]                 (recursive)
==========================================================================================
Total params: 26,406
Trainable params: 26,406
Non-trainable params: 0
Total mult-adds (M): 4.28
==========================================================================================
Input size (MB): 3.84
Forward/backward pass size (MB): 7.26
…
