…
::: ##:::: ##:::: ##: ##::. ##: ########:: ########: ##:::: ##:
:::..:::::..:::::..::..::::..::........:::........::..:::::..::

2023-05-02 07:06:32.201 | INFO     | models.temporal_integrators:summarize:571 - [34mofficial PyTorch implementation.[0m
2023-05-02 07:06:32.563 | INFO     | models.temporal_integrators:summarize:593 - Network summary:
==========================================================================================
Layer (type:depth-idx)                   Output Shape              Param #
==========================================================================================
B2BsqrtTANDEM                            [150, 50, 3, 3]           131
├─LSTM: 1-1                              [7500, 1, 16]             9,280
│    └─Sigmoid: 2-1                      [7500, 16]                --
│    └─Sigmoid: 2-2                      [7500, 16]                --
│    └─Sigmoid: 2-3                      [7500, 16]                --
├─GELU: 1-2                              [7500, 16]                --
├─Linear: 1-3                            [7500, 3]                 51
==========================================================================================
Total params: 9,462
Trainable params: 9,462
Non-trainable params: 0
Total mult-adds (M): 0.38
==========================================================================================
Input size (MB): 3.84
Forward/backward pass size (MB): 0.18
Params size (MB): 0.00
Estimated Total Size (MB): 4.02
==========================================================================================
…
