…
::: ##:::: ##:::: ##: ##::. ##: ########:: ########: ##:::: ##:
:::..:::::..:::::..::..::::..::........:::........::..:::::..::

2023-05-15 04:44:37.364 | INFO     | models.temporal_integrators:summarize:569 - [34mofficial PyTorch implementation.[0m
2023-05-15 04:44:37.420 | INFO     | models.temporal_integrators:summarize:591 - Network summary:
==========================================================================================
Layer (type:depth-idx)                   Output Shape              Param #
==========================================================================================
B2BsqrtTANDEM                            [150, 50, 3, 3]           3
├─PositionalEncoding: 1-1                [7350, 2, 128]            --
│    └─Dropout: 2-1                      [2, 7350, 128]            --
├─LSTM: 1-2                              [7350, 2, 27]             16,848
│    └─Tanh: 2-2                         [7350, 27]                --
│    └─Tanh: 2-3                         [7350, 27]                --
│    └─Tanh: 2-4                         [7350, 27]                --
│    └─Tanh: 2-5                         [7350, 27]                --
│    └─Tanh: 2-6                         [7350, 27]                --
│    └─Tanh: 2-7                         [7350, 27]                --
│    └─Tanh: 2-8                         [7350, 27]                --
│    └─Tanh: 2-9                         [7350, 27]                --
│    └─Tanh: 2-10                        [7350, 27]                --
│    └─Tanh: 2-11                        [7350, 27]                --
├─ReLU: 1-3                              [7350, 27]                --
├─Linear: 1-4                            [7350, 3]                 84
├─ReLU: 1-5                              [7350, 27]                --
├─Linear: 1-6                            [7350, 3]                 (recursive)
==========================================================================================
Total params: 16,935
Trainable params: 16,935
Non-trainable params: 0
Total mult-adds (M): 1.23
==========================================================================================
Input size (MB): 3.84
Forward/backward pass size (MB): 0.35
…
