…
::: ##:::: ##:::: ##: ##::. ##: ########:: ########: ##:::: ##:
:::..:::::..:::::..::..::::..::........:::........::..:::::..::

2023-05-02 04:31:42.301 | INFO     | models.temporal_integrators:summarize:571 - [34mofficial PyTorch implementation.[0m
2023-05-02 04:31:42.987 | INFO     | models.temporal_integrators:summarize:593 - Network summary:
==========================================================================================
Layer (type:depth-idx)                   Output Shape              Param #
==========================================================================================
B2BsqrtTANDEM                            [150, 50, 3, 3]           256
├─LSTM: 1-1                              [7350, 2, 31]             19,840
│    └─Sigmoid: 2-1                      [7350, 31]                --
│    └─Sigmoid: 2-2                      [7350, 31]                --
│    └─Sigmoid: 2-3                      [7350, 31]                --
│    └─Sigmoid: 2-4                      [7350, 31]                --
│    └─Sigmoid: 2-5                      [7350, 31]                --
│    └─Sigmoid: 2-6                      [7350, 31]                --
├─LayerNorm: 1-2                         [7350, 31]                62
├─Linear: 1-3                            [7350, 3]                 96
├─LayerNorm: 1-4                         [7350, 31]                (recursive)
├─Linear: 1-5                            [7350, 3]                 (recursive)
==========================================================================================
Total params: 20,254
Trainable params: 20,254
Non-trainable params: 0
Total mult-adds (M): 2.32
==========================================================================================
…
