…
::: ##:::: ##:::: ##: ##::. ##: ########:: ########: ##:::: ##:
:::..:::::..:::::..::..::::..::........:::........::..:::::..::

2023-05-01 21:02:03.348 | INFO     | models.temporal_integrators:summarize:571 - [34mofficial PyTorch implementation.[0m
2023-05-01 21:02:03.734 | INFO     | models.temporal_integrators:summarize:593 - Network summary:
==========================================================================================
Layer (type:depth-idx)                   Output Shape              Param #
==========================================================================================
B2BsqrtTANDEM                            [150, 50, 3, 3]           259
├─LSTM: 1-1                              [7350, 2, 80]             66,880
│    └─Tanh: 2-1                         [7350, 80]                --
│    └─Tanh: 2-2                         [7350, 80]                --
│    └─Tanh: 2-3                         [7350, 80]                --
│    └─Tanh: 2-4                         [7350, 80]                --
│    └─Tanh: 2-5                         [7350, 80]                --
│    └─Tanh: 2-6                         [7350, 80]                --
├─ReLU: 1-2                              [7350, 80]                --
├─Linear: 1-3                            [7350, 3]                 243
├─ReLU: 1-4                              [7350, 80]                --
├─Linear: 1-5                            [7350, 3]                 (recursive)
==========================================================================================
Total params: 67,382
Trainable params: 67,382
Non-trainable params: 0
Total mult-adds (M): 3.57
==========================================================================================
Input size (MB): 3.84
Forward/backward pass size (MB): 0.35
…
