…
::: ##:::: ##:::: ##: ##::. ##: ########:: ########: ##:::: ##:
:::..:::::..:::::..::..::::..::........:::........::..:::::..::

2023-05-15 05:38:37.841 | INFO     | models.temporal_integrators:summarize:569 - [34mofficial PyTorch implementation.[0m
2023-05-15 05:38:37.896 | INFO     | models.temporal_integrators:summarize:591 - Network summary:
==========================================================================================
Layer (type:depth-idx)                   Output Shape              Param #
==========================================================================================
B2BsqrtTANDEM                            [150, 50, 3, 3]           387
├─LSTM: 1-1                              [7200, 3, 48]             33,984
│    └─Sigmoid: 2-1                      [7200, 48]                --
│    └─Sigmoid: 2-2                      [7200, 48]                --
│    └─Sigmoid: 2-3                      [7200, 48]                --
│    └─Sigmoid: 2-4                      [7200, 48]                --
│    └─Sigmoid: 2-5                      [7200, 48]                --
│    └─Sigmoid: 2-6                      [7200, 48]                --
│    └─Sigmoid: 2-7                      [7200, 48]                --
│    └─Sigmoid: 2-8                      [7200, 48]                --
│    └─Sigmoid: 2-9                      [7200, 48]                --
├─GELU: 1-2                              [7200, 48]                --
├─Linear: 1-3                            [7200, 3]                 147
├─GELU: 1-4                              [7200, 48]                --
├─Linear: 1-5                            [7200, 3]                 (recursive)
├─GELU: 1-6                              [7200, 48]                --
├─Linear: 1-7                            [7200, 3]                 (recursive)
==========================================================================================
Total params: 34,518
Trainable params: 34,518
Non-trainable params: 0
Total mult-adds (M): 3.18
==========================================================================================
Input size (MB): 3.84
Forward/backward pass size (MB): 0.52
…
