…
::: ##:::: ##:::: ##: ##::. ##: ########:: ########: ##:::: ##:
:::..:::::..:::::..::..::::..::........:::........::..:::::..::

2023-05-01 21:30:06.374 | INFO     | models.temporal_integrators:summarize:571 - [34mofficial PyTorch implementation.[0m
2023-05-01 21:30:06.422 | INFO     | models.temporal_integrators:summarize:593 - Network summary:
==========================================================================================
Layer (type:depth-idx)                   Output Shape              Param #
==========================================================================================
B2BsqrtTANDEM                            [150, 50, 3, 3]           3
├─PositionalEncoding: 1-1                [6900, 5, 128]            --
│    └─Dropout: 2-1                      [5, 6900, 128]            --
├─LSTM: 1-2                              [6900, 5, 73]             58,984
│    └─Tanh: 2-2                         [6900, 73]                --
│    └─Tanh: 2-3                         [6900, 73]                --
│    └─Tanh: 2-4                         [6900, 73]                --
│    └─Sigmoid: 2-5                      [6900, 73]                --
│    └─Sigmoid: 2-6                      [6900, 73]                --
│    └─Tanh: 2-7                         [6900, 73]                --
│    └─Tanh: 2-8                         [6900, 73]                --
│    └─Tanh: 2-9                         [6900, 73]                --
│    └─Sigmoid: 2-10                     [6900, 73]                --
│    └─Sigmoid: 2-11                     [6900, 73]                --
│    └─Tanh: 2-12                        [6900, 73]                --
│    └─Tanh: 2-13                        [6900, 73]                --
│    └─Tanh: 2-14                        [6900, 73]                --
│    └─Sigmoid: 2-15                     [6900, 73]                --
│    └─Sigmoid: 2-16                     [6900, 73]                --
│    └─Tanh: 2-17                        [6900, 73]                --
│    └─Tanh: 2-18                        [6900, 73]                --
│    └─Tanh: 2-19                        [6900, 73]                --
│    └─Sigmoid: 2-20                     [6900, 73]                --
│    └─Sigmoid: 2-21                     [6900, 73]                --
│    └─Tanh: 2-22                        [6900, 73]                --
│    └─Tanh: 2-23                        [6900, 73]                --
│    └─Tanh: 2-24                        [6900, 73]                --
│    └─Sigmoid: 2-25                     [6900, 73]                --
│    └─Sigmoid: 2-26                     [6900, 73]                --
├─LayerNorm: 1-3                         [6900, 73]                146
├─ReLU: 1-4                              [6900, 73]                --
├─Linear: 1-5                            [6900, 3]                 222
├─LayerNorm: 1-6                         [6900, 73]                (recursive)
├─ReLU: 1-7                              [6900, 73]                --
├─Linear: 1-8                            [6900, 3]                 (recursive)
├─LayerNorm: 1-9                         [6900, 73]                (recursive)
├─ReLU: 1-10                             [6900, 73]                --
├─Linear: 1-11                           [6900, 3]                 (recursive)
├─LayerNorm: 1-12                        [6900, 73]                (recursive)
├─ReLU: 1-13                             [6900, 73]                --
├─Linear: 1-14                           [6900, 3]                 (recursive)
├─LayerNorm: 1-15                        [6900, 73]                (recursive)
├─ReLU: 1-16                             [6900, 73]                --
├─Linear: 1-17                           [6900, 3]                 (recursive)
==========================================================================================
Total params: 59,355
Trainable params: 59,355
Non-trainable params: 0
Total mult-adds (M): 12.70
==========================================================================================
Input size (MB): 3.84
Forward/backward pass size (MB): 20.98
…
