…
::: ##:::: ##:::: ##: ##::. ##: ########:: ########: ##:::: ##:
:::..:::::..:::::..::..::::..::........:::........::..:::::..::

2023-05-01 23:00:59.616 | INFO     | models.temporal_integrators:summarize:571 - [34mofficial PyTorch implementation.[0m
2023-05-01 23:01:00.547 | INFO     | models.temporal_integrators:summarize:593 - Network summary:
==========================================================================================
Layer (type:depth-idx)                   Output Shape              Param #
==========================================================================================
B2BsqrtTANDEM                            [150, 50, 3, 3]           512
├─LSTM: 1-1                              [7050, 4, 69]             54,648
│    └─Sigmoid: 2-1                      [7050, 69]                --
│    └─Sigmoid: 2-2                      [7050, 69]                --
│    └─Sigmoid: 2-3                      [7050, 69]                --
│    └─Tanh: 2-4                         [7050, 69]                --
│    └─Tanh: 2-5                         [7050, 69]                --
│    └─Sigmoid: 2-6                      [7050, 69]                --
│    └─Sigmoid: 2-7                      [7050, 69]                --
│    └─Sigmoid: 2-8                      [7050, 69]                --
│    └─Tanh: 2-9                         [7050, 69]                --
│    └─Tanh: 2-10                        [7050, 69]                --
│    └─Sigmoid: 2-11                     [7050, 69]                --
│    └─Sigmoid: 2-12                     [7050, 69]                --
│    └─Sigmoid: 2-13                     [7050, 69]                --
│    └─Tanh: 2-14                        [7050, 69]                --
│    └─Tanh: 2-15                        [7050, 69]                --
│    └─Sigmoid: 2-16                     [7050, 69]                --
│    └─Sigmoid: 2-17                     [7050, 69]                --
│    └─Sigmoid: 2-18                     [7050, 69]                --
│    └─Tanh: 2-19                        [7050, 69]                --
│    └─Tanh: 2-20                        [7050, 69]                --
├─LayerNorm: 1-2                         [7050, 69]                138
├─Linear: 1-3                            [7050, 3]                 210
├─LayerNorm: 1-4                         [7050, 69]                (recursive)
├─Linear: 1-5                            [7050, 3]                 (recursive)
├─LayerNorm: 1-6                         [7050, 69]                (recursive)
├─Linear: 1-7                            [7050, 3]                 (recursive)
├─LayerNorm: 1-8                         [7050, 69]                (recursive)
├─Linear: 1-9                            [7050, 3]                 (recursive)
…
