…
::: ##:::: ##:::: ##: ##::. ##: ########:: ########: ##:::: ##:
:::..:::::..:::::..::..::::..::........:::........::..:::::..::

2023-05-15 05:19:15.980 | INFO     | models.temporal_integrators:summarize:569 - [34mofficial PyTorch implementation.[0m
2023-05-15 05:19:16.035 | INFO     | models.temporal_integrators:summarize:591 - Network summary:
==========================================================================================
Layer (type:depth-idx)                   Output Shape              Param #
==========================================================================================
B2BsqrtTANDEM                            [150, 50, 3, 3]           512
├─LSTM: 1-1                              [7050, 4, 23]             13,984
│    └─Sigmoid: 2-1                      [7050, 23]                --
│    └─Sigmoid: 2-2                      [7050, 23]                --
│    └─Sigmoid: 2-3                      [7050, 23]                --
│    └─Sigmoid: 2-4                      [7050, 23]                --
│    └─Sigmoid: 2-5                      [7050, 23]                --
│    └─Sigmoid: 2-6                      [7050, 23]                --
│    └─Sigmoid: 2-7                      [7050, 23]                --
│    └─Sigmoid: 2-8                      [7050, 23]                --
│    └─Sigmoid: 2-9                      [7050, 23]                --
│    └─Sigmoid: 2-10                     [7050, 23]                --
│    └─Sigmoid: 2-11                     [7050, 23]                --
│    └─Sigmoid: 2-12                     [7050, 23]                --
├─Tanh: 1-2                              [7050, 23]                --
├─Linear: 1-3                            [7050, 3]                 72
├─Tanh: 1-4                              [7050, 23]                --
├─Linear: 1-5                            [7050, 3]                 (recursive)
├─Tanh: 1-6                              [7050, 23]                --
├─Linear: 1-7                            [7050, 3]                 (recursive)
├─Tanh: 1-8                              [7050, 23]                --
├─Linear: 1-9                            [7050, 3]                 (recursive)
==========================================================================================
Total params: 14,568
Trainable params: 14,568
Non-trainable params: 0
Total mult-adds (M): 2.03
==========================================================================================
Input size (MB): 3.84
Forward/backward pass size (MB): 0.68
…
