…
::: ##:::: ##:::: ##: ##::. ##: ########:: ########: ##:::: ##:
:::..:::::..:::::..::..::::..::........:::........::..:::::..::

2023-05-02 02:05:05.100 | INFO     | models.temporal_integrators:summarize:571 - [34mofficial PyTorch implementation.[0m
2023-05-02 02:05:05.155 | INFO     | models.temporal_integrators:summarize:593 - Network summary:
==========================================================================================
Layer (type:depth-idx)                   Output Shape              Param #
==========================================================================================
B2BsqrtTANDEM                            [150, 50, 3, 3]           256
├─LSTM: 1-1                              [7350, 2, 17]             9,928
│    └─Sigmoid: 2-1                      [7350, 17]                --
│    └─Sigmoid: 2-2                      [7350, 17]                --
│    └─Sigmoid: 2-3                      [7350, 17]                --
│    └─Sigmoid: 2-4                      [7350, 17]                --
│    └─Sigmoid: 2-5                      [7350, 17]                --
│    └─Sigmoid: 2-6                      [7350, 17]                --
├─LayerNorm: 1-2                         [7350, 17]                34
├─GELU: 1-3                              [7350, 17]                --
├─Linear: 1-4                            [7350, 3]                 54
├─LayerNorm: 1-5                         [7350, 17]                (recursive)
├─GELU: 1-6                              [7350, 17]                --
├─Linear: 1-7                            [7350, 3]                 (recursive)
==========================================================================================
Total params: 10,272
Trainable params: 10,272
Non-trainable params: 0
Total mult-adds (M): 1.29
==========================================================================================
Input size (MB): 3.84
Forward/backward pass size (MB): 2.35
…
