…
:::..:::::..:::::..::..::::..::........:::........::..:::::..::

2023-05-02 01:38:28.247 | INFO     | models.temporal_integrators:summarize:571 - [34mofficial PyTorch implementation.[0m
2023-05-02 01:38:28.924 | INFO     | models.temporal_integrators:summarize:593 - Network summary:
===============================================================================================
Layer (type:depth-idx)                        Output Shape              Param #
===============================================================================================
TANDEMformer                                  [150, 50, 3, 3]           131
├─TransformerEncoder: 1-1                     [7500, 1, 128]            --
│    └─ModuleList: 2-1                        --                        --
│    │    └─TransformerEncoderLayer: 3-1      [7500, 1, 128]            74,912
├─Linear: 1-2                                 [7500, 64]                8,256
├─Dropout: 1-3                                [7500, 64]                --
├─Linear: 1-4                                 [7500, 3]                 195
===============================================================================================
Total params: 83,494
Trainable params: 83,494
Non-trainable params: 0
Total mult-adds (M): 129.86
===============================================================================================
Input size (MB): 3.84
Forward/backward pass size (MB): 28.98
Params size (MB): 0.07
Estimated Total Size (MB): 32.89
…
