…
:::..:::::..:::::..::..::::..::........:::........::..:::::..::

2023-05-15 05:15:10.992 | INFO     | models.temporal_integrators:summarize:569 - [34mofficial PyTorch implementation.[0m
2023-05-15 05:15:11.050 | INFO     | models.temporal_integrators:summarize:591 - Network summary:
===============================================================================================
Layer (type:depth-idx)                        Output Shape              Param #
===============================================================================================
TANDEMformer                                  [150, 50, 3, 3]           3
├─PositionalEncoding: 1-1                     [7350, 1, 128]            --
│    └─Dropout: 2-1                           [1, 7350, 128]            --
├─TransformerEncoder: 1-2                     [7350, 1, 128]            --
│    └─ModuleList: 2-4                        --                        (recursive)
│    │    └─TransformerEncoderLayer: 3-1      [7350, 1, 128]            74,912
├─Linear: 1-3                                 [7350, 64]                8,256
├─Dropout: 1-4                                [7350, 64]                --
├─PositionalEncoding: 1-5                     [7350, 2, 128]            --
│    └─Dropout: 2-3                           [2, 7350, 128]            --
├─TransformerEncoder: 1-6                     [7350, 2, 128]            (recursive)
│    └─ModuleList: 2-4                        --                        (recursive)
│    │    └─TransformerEncoderLayer: 3-2      [7350, 2, 128]            (recursive)
├─Linear: 1-7                                 [7350, 64]                (recursive)
├─Dropout: 1-8                                [7350, 64]                --
├─Tanh: 1-9                                   [7350, 64]                --
├─Linear: 1-10                                [7350, 3]                 195
├─Tanh: 1-11                                  [7350, 64]                --
├─Linear: 1-12                                [7350, 3]                 (recursive)
===============================================================================================
Total params: 83,366
Trainable params: 83,366
Non-trainable params: 0
Total mult-adds (M): 254.53
===============================================================================================
Input size (MB): 3.84
Forward/backward pass size (MB): 81.26
…
