…
:::..:::::..:::::..::..::::..::........:::........::..:::::..::

2023-05-15 05:10:32.388 | INFO     | models.temporal_integrators:summarize:569 - [34mofficial PyTorch implementation.[0m
2023-05-15 05:10:32.462 | INFO     | models.temporal_integrators:summarize:591 - Network summary:
===============================================================================================
Layer (type:depth-idx)                        Output Shape              Param #
===============================================================================================
TANDEMformer                                  [150, 50, 3, 3]           387
├─TransformerEncoder: 1-1                     [7200, 1, 128]            --
│    └─ModuleList: 2-3                        --                        (recursive)
│    │    └─TransformerEncoderLayer: 3-1      [7200, 1, 128]            74,912
├─Linear: 1-2                                 [7200, 64]                8,256
├─Dropout: 1-3                                [7200, 64]                --
├─TransformerEncoder: 1-4                     [7200, 2, 128]            (recursive)
│    └─ModuleList: 2-3                        --                        (recursive)
│    │    └─TransformerEncoderLayer: 3-2      [7200, 2, 128]            (recursive)
├─Linear: 1-5                                 [7200, 64]                (recursive)
├─Dropout: 1-6                                [7200, 64]                --
├─TransformerEncoder: 1-7                     [7200, 3, 128]            (recursive)
│    └─ModuleList: 2-3                        --                        (recursive)
│    │    └─TransformerEncoderLayer: 3-3      [7200, 3, 128]            (recursive)
├─Linear: 1-8                                 [7200, 64]                (recursive)
├─Dropout: 1-9                                [7200, 64]                --
├─Tanh: 1-10                                  [7200, 64]                --
├─Linear: 1-11                                [7200, 3]                 195
├─Tanh: 1-12                                  [7200, 64]                --
├─Linear: 1-13                                [7200, 3]                 (recursive)
├─Tanh: 1-14                                  [7200, 64]                --
├─Linear: 1-15                                [7200, 3]                 (recursive)
===============================================================================================
Total params: 83,750
Trainable params: 83,750
Non-trainable params: 0
Total mult-adds (M): 374.00
===============================================================================================
Input size (MB): 3.84
Forward/backward pass size (MB): 155.35
…
