…
:::..:::::..:::::..::..::::..::........:::........::..:::::..::

2023-05-01 22:54:25.879 | INFO     | models.temporal_integrators:summarize:571 - [34mofficial PyTorch implementation.[0m
2023-05-01 22:54:25.966 | INFO     | models.temporal_integrators:summarize:593 - Network summary:
===============================================================================================
Layer (type:depth-idx)                        Output Shape              Param #
===============================================================================================
TANDEMformer                                  [150, 50, 3, 3]           --
├─PositionalEncoding: 1-1                     [6900, 1, 128]            --
│    └─Dropout: 2-1                           [1, 6900, 128]            --
├─TransformerEncoder: 1-2                     [6900, 1, 128]            --
│    └─ModuleList: 2-10                       --                        (recursive)
│    │    └─TransformerEncoderLayer: 3-1      [6900, 1, 128]            83,136
├─Linear: 1-3                                 [6900, 64]                8,256
├─Dropout: 1-4                                [6900, 64]                --
├─PositionalEncoding: 1-5                     [6900, 2, 128]            --
│    └─Dropout: 2-3                           [2, 6900, 128]            --
├─TransformerEncoder: 1-6                     [6900, 2, 128]            (recursive)
│    └─ModuleList: 2-10                       --                        (recursive)
│    │    └─TransformerEncoderLayer: 3-2      [6900, 2, 128]            (recursive)
├─Linear: 1-7                                 [6900, 64]                (recursive)
├─Dropout: 1-8                                [6900, 64]                --
├─PositionalEncoding: 1-9                     [6900, 3, 128]            --
│    └─Dropout: 2-5                           [3, 6900, 128]            --
├─TransformerEncoder: 1-10                    [6900, 3, 128]            (recursive)
│    └─ModuleList: 2-10                       --                        (recursive)
│    │    └─TransformerEncoderLayer: 3-3      [6900, 3, 128]            (recursive)
├─Linear: 1-11                                [6900, 64]                (recursive)
├─Dropout: 1-12                               [6900, 64]                --
├─PositionalEncoding: 1-13                    [6900, 4, 128]            --
│    └─Dropout: 2-7                           [4, 6900, 128]            --
├─TransformerEncoder: 1-14                    [6900, 4, 128]            (recursive)
│    └─ModuleList: 2-10                       --                        (recursive)
│    │    └─TransformerEncoderLayer: 3-4      [6900, 4, 128]            (recursive)
├─Linear: 1-15                                [6900, 64]                (recursive)
├─Dropout: 1-16                               [6900, 64]                --
├─PositionalEncoding: 1-17                    [6900, 5, 128]            --
│    └─Dropout: 2-9                           [5, 6900, 128]            --
├─TransformerEncoder: 1-18                    [6900, 5, 128]            (recursive)
│    └─ModuleList: 2-10                       --                        (recursive)
│    │    └─TransformerEncoderLayer: 3-5      [6900, 5, 128]            (recursive)
├─Linear: 1-19                                [6900, 64]                (recursive)
├─Dropout: 1-20                               [6900, 64]                --
├─ReLU: 1-21                                  [6900, 64]                --
├─Linear: 1-22                                [6900, 3]                 195
├─ReLU: 1-23                                  [6900, 64]                --
├─Linear: 1-24                                [6900, 3]                 (recursive)
├─ReLU: 1-25                                  [6900, 64]                --
├─Linear: 1-26                                [6900, 3]                 (recursive)
├─ReLU: 1-27                                  [6900, 64]                --
├─Linear: 1-28                                [6900, 3]                 (recursive)
├─ReLU: 1-29                                  [6900, 64]                --
├─Linear: 1-30                                [6900, 3]                 (recursive)
===============================================================================================
Total params: 91,587
Trainable params: 91,587
Non-trainable params: 0
Total mult-adds (M): 291.56
===============================================================================================
Input size (MB): 3.84
Forward/backward pass size (MB): 18.49
…
