…
:::..:::::..:::::..::..::::..::........:::........::..:::::..::

2023-05-15 05:27:13.729 | INFO     | models.temporal_integrators:summarize:569 - [34mofficial PyTorch implementation.[0m
2023-05-15 05:27:13.772 | INFO     | models.temporal_integrators:summarize:591 - Network summary:
===============================================================================================
Layer (type:depth-idx)                        Output Shape              Param #
===============================================================================================
TANDEMformer                                  [150, 50, 3, 3]           3
├─PositionalEncoding: 1-1                     [7500, 1, 128]            --
│    └─Dropout: 2-1                           [1, 7500, 128]            --
├─TransformerEncoder: 1-2                     [7500, 1, 128]            --
│    └─ModuleList: 2-2                        --                        --
│    │    └─TransformerEncoderLayer: 3-1      [7500, 1, 128]            74,912
├─Linear: 1-3                                 [7500, 64]                8,256
├─Dropout: 1-4                                [7500, 64]                --
├─LayerNorm: 1-5                              [7500, 64]                128
├─Linear: 1-6                                 [7500, 3]                 195
===============================================================================================
Total params: 83,494
Trainable params: 83,494
Non-trainable params: 0
Total mult-adds (M): 130.82
===============================================================================================
Input size (MB): 3.84
Forward/backward pass size (MB): 32.82
Params size (MB): 0.07
Estimated Total Size (MB): 36.73
…
