…
:::..:::::..:::::..::..::::..::........:::........::..:::::..::

2023-05-15 04:27:27.420 | INFO     | models.temporal_integrators:summarize:569 - [34mofficial PyTorch implementation.[0m
2023-05-15 04:27:27.478 | INFO     | models.temporal_integrators:summarize:591 - Network summary:
===============================================================================================
Layer (type:depth-idx)                        Output Shape              Param #
===============================================================================================
TANDEMformer                                  [150, 50, 3, 3]           259
├─TransformerEncoder: 1-1                     [7350, 1, 128]            --
│    └─ModuleList: 2-2                        --                        (recursive)
│    │    └─TransformerEncoderLayer: 3-1      [7350, 1, 128]            74,912
├─Linear: 1-2                                 [7350, 64]                8,256
├─Dropout: 1-3                                [7350, 64]                --
├─TransformerEncoder: 1-4                     [7350, 2, 128]            (recursive)
│    └─ModuleList: 2-2                        --                        (recursive)
│    │    └─TransformerEncoderLayer: 3-2      [7350, 2, 128]            (recursive)
├─Linear: 1-5                                 [7350, 64]                (recursive)
├─Dropout: 1-6                                [7350, 64]                --
├─GELU: 1-7                                   [7350, 64]                --
├─Linear: 1-8                                 [7350, 3]                 195
├─GELU: 1-9                                   [7350, 64]                --
├─Linear: 1-10                                [7350, 3]                 (recursive)
===============================================================================================
Total params: 83,622
Trainable params: 83,622
Non-trainable params: 0
Total mult-adds (M): 124.23
===============================================================================================
Input size (MB): 3.84
Forward/backward pass size (MB): 7.88
…
